policy_net.pth (torch, 114283 bytes, 10 tensors)

conv1.weight f4 [16, 1, 3, 3]
00000000: ec50 fc3f cbd1 9bbe a891 f0be ae97 0e3f
00000010: 0681 e8be 0f7e fc3e 0107 2cbe de51 f73e
00000020: ed93 1a3f ed0d 6fbe 8048 c83f 821f f03c
00000030: 9ef6 af3c d676 aa3d 4886 ee3f 97f3 623f
00000040: 39f9 f83f 8c1f 563f 2d25 833e 2ee0 a8be
00000050: 8942 64bd f027 eabe 0559 a0be 1aa7 93be
00000060: cd8a 243f d743 8340 f79e 58bd 6627 0dbf
00000070: 2bc8 f33e ef40 183f 5528 3cbf 8c32 923e
00000080: b55a 90be d1d5 e43f 2030 14bf 52dc 6d40
00000090: e568 3a3d b9a6 903e 9e95 8ebe 1d58 103e
000000a0: 47be f13f fd92 9e3b c743 083e b97a 82bf
000000b0: a7e4 62bf 80b0 9b3e 814c 0540 1ace a73e
000000c0: b31f b23f d756 2e3f e375 673d f54d 0ebe
000000d0: ba55 a93f 1409 eb3d 186b 77bd 26d3 cbbe
000000e0: 6b1c 2bbe 3ab1 24bf b2fc a6be c6d7 c03d
000000f0: e5be b5be 1cd9 953d b0cf 15be ab99 afbe
00000100: de67 173d 4548 ddbd 63c4 9fbe 5bcc 5a3e
00000110: a9a3 db3e f44c 37be ab89 c33e 82e8 adbe
00000120: a180 08bf 638a 42bf a4df f2be ee4e 1840
00000130: 3723 f53d 6f55 f43e 1392 e23e 1bfb 6f3f
00000140: f247 a53e 9eaf 81be 565d cbbd 2c15 cbbe
00000150: 9ca6 a8be 4415 dfbd f4ca a43d bcda 08bf
00000160: 636d 0d40 d517 d93d 70fa e5be c6f9 023f
00000170: cbf9 27bf beb1 1e3f ffbc 203e b9d6 56bf
00000180: baff 42bf cc48 11bf 90d4 5abf 0107 04bf
00000190: fc90 b43f 4ff4 9b3e 28ec 80be 3dd1 1dbf
000001a0: ad92 6a3e 952b 07bf 4e09 8bbf 278d 08be
000001b0: 36ae 10be 4991 50be dd48 05bf 5fe6 a3be
000001c0: 1b3b 84be bafc 11bf 44a3 6e3e cf65 b73e
000001d0: 780b 93be 181c 093f 7622 413f b227 f2be
000001e0: d27e b73d bc8e 22be 777c 1abe bad5 83be
000001f0: 6cd1 9d3d e133 163e 8e61 60be 4272 f53c
00000200: 454c c4bc 52fa aabd 7e29 413e 5cb7 5abe
00000210: 9047 003e 169a 553d d6e0 ea3d 4b8b 723c
00000220: 1213 3e3e dc1a 833f a924 0f3c c708 74be
00000230: c357 cd3e cae1 993d f95f 8a3c c3ee e1be
1.9712195 -0.30433497 -0.46986127 0.55700195 -0.45410937 0.49314925 -0.16799547 0.48304647
0.60381967 -0.23345156 1.5647125 0.0293119 0.0214799 0.083234474 1.8634729 0.8865294
1.9451057 0.83641887 0.256143 -0.32983536 -0.055727515 -0.45733595 -0.31317917 -0.28838426
0.64274293 4.102031 -0.052885976 -0.5513824 0.47613654 0.5947408 -0.7349904 0.2855419
-0.28194204 1.7877752 -0.5788593 3.7165723 0.04551019 0.282522 -0.27848524 0.14096113
1.8886193 0.0048392997 0.13307105 -1.0193702 -0.88630146 0.30408096 2.0827944 0.3277443
1.3915924 0.6810126 0.05650891 -0.13896926 1.3229287 0.11476341 -0.060404867 -0.3980953
-0.1671006 -0.64332926 -0.32614666 0.094161555 -0.35497203 0.07316801 -0.14630008 -0.34296927
0.03696429 -0.108048 -0.3120452 0.21367018 0.428983 -0.17900449 0.3819097 -0.33966452
-0.5332127 -0.7599241 -0.4743625 2.3798175 0.11969607 0.4772143 0.4425207 0.9374253
0.32281452 -0.25329298 -0.09929912 -0.3966459 -0.32939613 -0.10892728 0.08046523 -0.5345876
2.2098014 0.10600249 -0.4491763 0.51162374 -0.6561553 0.61989963 0.15697096 -0.8392139
-0.7617146 -0.56751704 -0.85480595 -0.5157319 1.4106746 0.3045983 -0.25180173 -0.616474
0.22907515 -0.52800876 -1.0862215 -0.13335095 -0.14128956 -0.20367922 -0.52064306 -0.32011697
-0.25826344 -0.57026255 0.23304468 0.3581986 -0.28719687 0.5355849 0.7544321 -0.4729591
0.08959736 -0.15874761 -0.15086542 -0.25748998 0.0770596 0.14668228 -0.21912214 0.029961709
-0.02396215 -0.08348526 0.18863484 -0.21359009 0.12527299 0.0521489 0.11468665 0.014803718
0.18561962 1.0242572 0.008736768 -0.23831473 0.4010602 0.07513769 0.016891466 -0.44127473

conv1.bias f4 [16]
00000000: df0f 99be 34d4 df3e 339d fcbd 306d 8a3e
00000010: 2bc1 ec3c 00a0 d63d 4472 e3be d7f4 e33e
00000020: e097 b03e 1b96 503e d800 14be 91a9 c3be
00000030: 97f8 183d 53da 843e f8de 323f 2db0 ca3e
-0.2989492 0.43716586 -0.12334671 0.27036428 0.028900703 0.10479736 -0.44423115 0.44522735
0.3449087 0.2036976 -0.14453447 -0.38215306 0.03734645 0.25947818 0.69871473 0.39587536

conv2.weight f4 [32, 16, 3, 3]
00000000: b11c cbbe 4f0b 023d cc5b cf3d a8e5 dd3e
00000010: cfe0 23bf 807d 15bf d67a eab9 3c55 6fbe
00000020: a517 d5be 2114 f23e 8d07 fabe 5bf6 a7bc
00000030: e557 e73d 619a 2a3e c676 22bf e083 973e
00000040: 1ea0 933d a150 c4be 0e8b 46be 5630 3cbf
00000050: a7fc 2abf 2d3b cc3e f448 1b3e 0b54 5d3e
00000060: 874a e33d eaa9 27be de25 093e e449 123e
00000070: 402b 09bf 3e51 9fbe 5b99 833e 7fca a7be
00000080: 60d0 8abe 8ec2 acbe f0a4 5cbe 78b7 2dbf
00000090: 729d adbe 9041 0e3d bf14 f5be faf1 ff3c
000000a0: b0e5 5fbd 9329 10bf 9db9 74be 3043 23bf
000000b0: 8174 adbb 052e 0fbf 0111 06bf dc06 a2bf
000000c0: 8f63 503e 486d 8dbe 34ad b3bf 07a9 9a3d
000000d0: 37ef c9bd dd9f 3fbd 0bb2 d6be d0a2 9a3e
000000e0: 0849 1bbe 45f6 91bf abc7 4bbf b562 80be
000000f0: 1bbe 1b3e cd40 d63e d2df c83e 0ee3 a13e
00000100: f8f8 dc3d 1aa1 d53c 3d59 753e 2244 813d
00000110: a63a bbbd 80c8 073e 7035 113e c5c8 133d
00000120: 2426 de3e 786e 213e 0f5a 0c3f cdc2 a43e
00000130: a57f f1bd bc69 f2bd 237e 2d3e 7c61 fb3e
00000140: 38b8 843e 3128 953d 6155 7c3d e651 65be
00000150: f19c 2d3e 4ebc 143c 4092 3dbd 965a fb3d
00000160: 5e93 8cbd 403a 3d3e 4c14 88be f540 a33c
00000170: ff7b 37be 8352 cd3d e12a 6fbd f898 263d
00000180: 33dd 2b3e 5c71 c1be 7fe2 90bf 18af aebe
00000190: 5036 04bf d522 4abe cb01 0cbe c7ca 57be
000001a0: 5b43 ce3b 42b6 36be e7bb 953e 6295 94be
000001b0: f17b 7d3e 78d0 9d3e 5594 033e 5ee0 edbd
000001c0: 5fa5 8f3c cae2 7fbe 4932 ed3b b207 eb3d
000001d0: 610d 08bd 82b5 79be 028d d5bd 0c98 1e3e
000001e0: 136d b6bd 5291 5b3e c95a 3a3e 65d8 883e
000001f0: fcfd 6ebe 99eb e4bd ba7a 833e 14f8 6b3e
00000200: ce97 923e 2775 6a3e 50ed 213e 8dd6 3d3d
00000210: 7d53 ba3e d715 933e 95b2 503d 7bcc ed3d
00000220: cfeb 17be d60a 45be 611d 1c3e aabe 47be
00000230: ab02 07be 3f9a 713c 3b08 7fbc 97f2 f1bd
00000240: 9084 ddbd b9ca e9bd 9fc0 fe3d db4c 263b
00000250: a552 713e 8aaf 8abd 3c43 13bf 6aa5 8ebe
00000260: dc60 e6be f1f9 413e ee8c 44be d685 8fbe
00000270: 2a98 ea3d 23c7 33bf 0072 11bf 00e9 093c
00000280: 6561 41bf 8aae 43bf d3b7 763e 3ec4 3abe
00000290: b6f6 033e 28bb 9a3e c167 10bd 3dc8 20be
000002a0: bfe7 a03e c404 75bd a568 edbe cb52 26be
000002b0: 07b0 143d 81df b7bd c6f6 d3be 6e95 e3bd
000002c0: c9b4 80ba 044f 61be b420 683e cd79 013e
000002d0: e2dc 3c3e a25d fabd b2b0 563e ef2c da3d
000002e0: 6a69 273e 9ec1 093d af72 e73d 95f8 7e3b
000002f0: 6673 883d ac4f f23d d424 e03d 4484 47bd
00000300: ce85 2b3e a5a1 003d 2461 52bc f26d 843e
00000310: 9d22 f73e 4fa8 a1bf b22d 3c3e 3084 603d
00000320: afbe ddbd 774c 1b3e 39f7 98bb 6713 d2bd
00000330: 95ab 193d 80ac 87bd e05b 83bd 712c 253e
00000340: b7f9 743d 0f2a f13d 5b00 853d e179 a83d
00000350: 709e 013d 5a52 16bd 2b18 c5ba 3954 de3c
00000360: 443e ae3d 115c eb3b a55d 91be 3bc6 c93d
00000370: 271d 8d3b b6dc 0fbf 01bd f7bc 2713 053e
00000380: 3236 c2be 9082 bd3d 69fa 0bbe da86 063d
00000390: ff70 a73c 12c6 bfbd fb77 1a3e aa14 b23c
000003a0: 7cb6 29be fd1b 763e b2c2 ddbd 6e44 03be
000003b0: 0970 abbd 85e9 fcbd 111d 893b d784 7abd
000003c0: 0878 d9bd 524e c13d 7f51 14be 5aa3 233e
000003d0: a65d adbd 4d46 d93d d986 293e 2b27 ccbe
000003e0: 4e30 2e3d 9b99 c23c 7738 f5be b35a 6abe
000003f0: f717 83bd 974a 92bd 2ab9 1f3e 26e1 88bd
-0.39670327 0.031749066 0.10124931 0.43339276 -0.64014906 -0.5839462 -0.00044723478 -0.23372358
-0.41619602 0.47280982 -0.48833886 -0.020503214 0.112960614 0.16660453 -0.63462484 0.295928
0.07208274 -0.38342765 -0.19388983 -0.73511255 -0.66791767 0.39888898 0.15164548 0.21614091
0.11098199 -0.16373411 0.13393351 0.14286 -0.5358162 -0.3111667 0.25702938 -0.3277168
-0.27112103 -0.33742183 -0.21547294 -0.67858076 -0.33909184 0.034730494 -0.4786739 0.031243313
-0.054662406 -0.5631344 -0.23898931 -0.63774395 -0.0052934294 -0.55929595 -0.52369696 -1.2658343
0.20350479 -0.27622437 -1.4037232 0.07551771 -0.0986008 -0.046783317 -0.4193271 0.3020234
-0.15164578 -1.140328 -0.79601544 -0.25075307 0.15209238 0.41846314 0.3923326 0.3161854
0.107896745 0.026077796 0.23959823 0.063118234 -0.09142046 0.13260078 0.14180541 0.03608014
0.43388474 0.15764797 0.5482492 0.3217987 -0.117919244 -0.118365735 0.16942649 0.49097812
0.25921798 0.072830565 0.06160486 -0.22394523 0.169544 0.009078098 -0.046282053 0.12273137
-0.068640456 0.18479252 -0.26577985 0.019928435 -0.17918395 0.100255035 -0.058390502 0.040673226
0.167836 -0.377818 -1.1319121 -0.3411796 -0.51645374 -0.1973985 -0.13672559 -0.21073447
0.0062946505 -0.17842963 0.2924492 -0.2902022 0.24754311 0.30823112 0.12849553 -0.1161506
0.01753491 -0.24988857 0.0072386605 0.11476077 -0.033215884 -0.24385646 -0.10427286 0.15487689
-0.08907523 0.21442154 0.18198694 0.26727596 -0.23339075 -0.11177749 0.2567957 0.23043853
0.28631443 0.22896253 0.15813184 0.04634719 0.36391822 0.287276 0.05095156 0.11611267
-0.14836048 -0.19242415 0.15245582 -0.19506326 -0.13184611 0.014746248 -0.015565927 -0.118138485
-0.108163 -0.114156194 0.12439083 0.00253754 0.23566683 -0.06771763 -0.57524467 -0.27860576
-0.44995773 0.18943001 -0.19194385 -0.28031796 0.11454804 -0.70225734 -0.56814575 0.008417368
-0.7553924 -0.764382 0.24093561 -0.18238923 0.12887082 0.30220914 -0.035255197 -0.15701385
0.31426808 -0.059818998 -0.463689 -0.1624252 0.036300685 -0.08978177 -0.4139921 -0.11112486
-0.0009819503 -0.22002798 0.22668725 0.1264412 0.18443635 -0.1222489 0.20965841 0.10653102
0.16348806 0.033631913 0.11301171 0.003890549 0.066626355 0.118316025 0.109445244 -0.048710123
0.16750261 0.031404156 -0.012840543 0.25865132 0.48268595 -1.2629489 0.18376806 0.054813564
-0.10827386 0.15165888 -0.004668143 -0.10257607 0.03751715 -0.06624699 -0.06414008 0.16130234
0.05980846 0.117756 0.064942084 0.082263716 0.03164524 -0.03669963 -0.001503711 0.02713977
0.0850797 0.007182606 -0.28391758 0.098522626 0.0043064537 -0.56196153 -0.030241491 0.12995587
-0.37931973 0.092534184 -0.13669743 0.03284345 0.020439623 -0.09363951 0.15084831 0.021738369
-0.16573519 0.24034114 -0.10828151 -0.12819073 -0.083709784 -0.12349228 0.004184373 -0.061161842
-0.10618597 0.094387665 -0.14484213 0.15980282 -0.08465128 0.10609112 0.16555347 -0.39873633
0.042526536 0.023754885 -0.47894642 -0.22886162 -0.06401055 -0.07143133 0.15597978 -0.06683569

conv2.bias f4 [32]
00000000: 87ec 563e e8a8 2b3d 314b 023e 5489 b73d
00000010: b79e f5bb 72ae e03d 7de3 893c afe1 9f3d
00000020: 5461 193e 760b 82bc ca0c d33d f49e ad3b
00000030: bdea c43d 1b59 a63d 7276 1b3e e0ba 6a3e
00000040: 3487 f7bd 23f1 ee3d 6ca7 403e d24b fa3d
00000050: 9eaa 05be 445b 8dbd fbbb d63d 76cc d03d
00000060: ac04 063e 85f9 7abc 30a8 95bd 98b9 d03c
00000070: ec37 eb3d 0bab 5f3c 33c8 ce3c 4de1 1fbe
0.20988666 0.04190913 0.12723996 0.0896174 -0.007495727 0.10970773 0.016832108 0.078067176
0.14978534 -0.015874606 0.10305174 0.0052984897 0.09615085 0.08122464 0.15181902 0.2292285
-0.12086335 0.11667087 0.18813866 0.12221493 -0.13053367 -0.06902173 0.10485073 0.10195248
0.1308772 -0.015318279 -0.0730747 0.025479123 0.114852756 0.01365162 0.025241947 -0.15613289

conv3.weight f4 [64, 32, 3, 3]
00000000: fb35 0cbd c790 bbbd 8fb2 29be 09ec bcbd
00000010: f1cc 683b 0014 393e e2ec 393e 3329 d13e
00000020: dd5b da3e 0c05 88be 292a 19bf 5e88 cebe
00000030: a1f4 eebe b082 2fbf dc23 2ebf 209f 00bf
00000040: d2de 4abf ff50 19bf 06a9 a73c 910e 6c3e
00000050: 069b 73bd 5495 25be bbf9 83bd 8f43 53be
00000060: c01d 873d ebba bf3d fa3c 4abd b8be 03be
00000070: c5f7 c0be 2080 6bbf 0522 0cbf 3021 b1be
00000080: bee5 1ebf 4170 12bf 9fb5 c8be 9fca 23bf
00000090: f990 fbbe 156b cbbe 8b55 b9be d85d bebe
000000a0: f522 24bf 51a5 1cbf aaee 5abe ffb3 06be
000000b0: 3f5a c3bd c728 fb3d 63c2 ce3e bf01 933e
000000c0: 8ed2 0b3e 3b4e 923e 00c1 4e3e 7895 403e
000000d0: a079 153e b7f3 843d a7bf b9be a77a 2fbe
000000e0: 416e 06bf b889 aabe b533 1fbe 7359 6dbe
000000f0: 0133 9cbf 30fc 3dbf ce8e a0be 6821 2ebf
00000100: 77f4 cebe 4cfa cbbe 3342 4cbf ae32 3cbf
00000110: ce9f d4be 6a1f 03bf 6f51 12bf bb28 c3be
00000120: 27ca f73d 1345 b4be bb03 4cbe efc0 b43c
00000130: a476 f1bd 5509 96bd 94b7 c8bd f9b7 14be
00000140: 1aeb 65bd 8d57 d1bd 5282 a5be 7829 70be
00000150: cff0 aebd e8e3 7dbe a877 a0bd 4370 253c
00000160: 28a7 5b3d 8ea9 a1bc c5ac d73d 4c06 983e
00000170: f842 243d a363 4e3e 0b67 0f3e 1056 e9bd
00000180: 64bb f53d 7e76 273c 4a97 4c3d f32e 343f
00000190: f8af cf3e 35ef 833e f7c6 273f 8f25 be3e
000001a0: d8cf 1b3e ffd4 213f 56f7 9e3e d294 a83e
000001b0: d2aa 3dbe d706 7f3d 3fec c13c a03b 1cbe
000001c0: 2bb6 59bc de9f 133d 142f 25bf 6ed6 debe
000001d0: de4b acbe 8384 d0bd 9118 95be d448 e9be
000001e0: f105 28be ab38 b9be 93d6 b1be 2db8 a1bd
000001f0: e79c 9dbe 1997 1ebf cead 103e 9806 483d
00000200: fd69 963d f766 4d3e 541a 203e 7e93 00bd
00000210: 33fe acbb 6946 893d 14e1 1cbc 3957 df3d
00000220: 8c56 243e 277d 103e 135c e83c 8c67 e63e
00000230: fc64 cb3e ddf4 be3e cd72 013f 9631 cf3e
00000240: a6b3 90be 053f 3bbd ecfd f5bd 135f 57be
00000250: e4c1 8f3d 6535 913d 6acb ff3c 6bb8 883e
00000260: ba78 a93e 5805 24bf a33d 33bf 8a5d 5ebe
00000270: 893b 5abf e7bb 5fbf a3c8 b3be 4e5a 89bf
00000280: e076 88bf 5592 09bf dd59 e9bd 07b7 153e
00000290: 1767 01bb be96 4b3d 1ec5 153e 6f86 023e
000002a0: 9c7f ce3d 7f5e 3e3e adf5 423e 8848 efbc
000002b0: b34e 6bbd 1b9d 71bc dd26 453d c533 a2bd
000002c0: 012b 0abc c4cb 583e 19ff cbbc 54d5 0e3e
000002d0: d45f 8fbe 41b0 33be 2db5 2fbe 19e5 6bbe
000002e0: 3eed 423d 41dd 90bc 4ca7 68be b6f4 a3bd
000002f0: 1122 56bd 6213 a63e f6ad fc3e b155 c93e
00000300: e26b 56bd 9230 833e ed50 803e 9945 433d
00000310: 11a8 4a3e e24e 773e 977b e83d a7a5 163e
00000320: 2682 073e 0e0a 0cbf 23ca a6be 5d75 97be
00000330: 5259 babe 8f82 93be 7df3 93bc 4ba7 49bd
00000340: 182a 1dbf 39d5 67bf 1fcc 5dbd 4a7e aebe
00000350: 03e7 14bf db96 29bf bc62 fbbe ee36 0ebf
00000360: e822 f73d f3f6 0cbf 697c 7abf 655d 7bbe
00000370: aaed 13bf fdd5 46bf 77c2 c9bd 0856 05bf
00000380: fded 43bf 2813 d93a d2b6 683e b802 a13d
00000390: d1b1 9c3b 72cd 293e fc67 1d3e 7912 85be
000003a0: 6b55 8d3c e940 9c3d 3ccd 63be 352a 7abd
000003b0: 82c0 fdbc f4c5 28bd 5b10 6d3c f663 10be
000003c0: bbf5 933c 4bd1 7d3e 6767 fe3c 04cc 3d3e
000003d0: b39b 7bbe d906 19bf 4f0f 9fbe 6b79 65bf
000003e0: 8dd6 74bf 5f3c 75bf 56f5 85bf 0424 97bf
000003f0: 5548 73be 55e6 0abe fba1 1e3d e231 15bc
-0.034231167 -0.091584735 -0.16572021 -0.09224708 0.0035522545 0.18074036 0.1815677 0.40851745
0.4264821 -0.2656635 -0.59829956 -0.40338415 -0.46671012 -0.6855879 -0.6802347 -0.50242805
-0.79246247 -0.59889215 0.020466339 0.23052432 -0.059474014 -0.16170245 -0.06444117 -0.2063124
0.06597471 0.09361824 -0.049374558 -0.12865722 -0.37689033 -0.9199238 -0.5473941 -0.34595633
-0.6206931 -0.57202536 -0.39201066 -0.6398105 -0.49134043 -0.39730135 -0.36198077 -0.37180972
-0.6411584 -0.6118975 -0.21380106 -0.131546 -0.095386975 0.12263637 0.4038268 0.2871227
0.13654539 0.2857531 0.20190811 0.18807018 0.14597178 0.064917974 -0.36279032 -0.17136632
-0.52511984 -0.33308196 -0.15547068 -0.23178653 -1.2203065 -0.7421293 -0.3135895 -0.68019724
-0.40420887 -0.398394 -0.7978851 -0.7351483 -0.4152817 -0.5121981 -0.5715551 -0.38117012
0.120991044 -0.3520895 -0.19923298 0.022064654 -0.11790207 -0.07325999 -0.0980064 -0.14523305
-0.056132413 -0.10221777 -0.3232599 -0.23453319 -0.08542024 -0.2479397 -0.078353226 0.010097566
0.05362621 -0.01973417 0.10531 0.29692304 0.04010293 0.20155196 0.14004152 -0.11393368
0.119986326 0.010221122 0.049948968 0.7038414 0.4056394 0.25768438 0.6553797 0.3713803
0.15216005 0.6321563 0.31048077 0.3292604 -0.18522194 0.062262382 0.023672221 -0.1525712
-0.013288061 0.036041133 -0.6452496 -0.43522972 -0.33651632 -0.101815246 -0.29120305 -0.45563376
-0.16408516 -0.36176047 -0.3473402 -0.07896457 -0.3078377 -0.61949307 0.14128801 0.048834413
0.073444344 0.20058809 0.15635043 -0.03139066 -0.0052793263 0.06702883 -0.009575147 0.10905308
0.1604864 0.14110242 0.028364217 0.45000875 0.39725482 0.3729619 0.505658 0.4046752
-0.2826206 -0.045714397 -0.120113224 -0.21032362 0.070194036 0.07090262 0.031224925 0.267032
0.3309992 -0.64070654 -0.70015925 -0.2171537 -0.85247093 -0.8739609 -0.3511401 -1.0730684
-1.0661278 -0.5373891 -0.11394093 0.146206 -0.0019745284 0.049704306 0.14625975 0.12746595
0.10082933 0.18590735 0.1903903 -0.02920939 -0.0574481 -0.0147469295 0.048132766 -0.079200305
-0.0084331045 0.2117148 -0.024901913 0.13948566 -0.280028 -0.17547704 -0.17158957 -0.23036613
0.047589533 -0.017683627 -0.22720069 -0.08005659 -0.052278582 0.32436663 0.49351472 0.3932319
-0.05234898 0.25622994 0.2506174 0.047673795 0.19790675 0.24151185 0.11351698 0.14711629
0.13233241 -0.5470284 -0.32576093 -0.2958173 -0.3639627 -0.28810546 -0.01806044 -0.04923181
-0.61392355 -0.90559727 -0.054149743 -0.34080726 -0.58164996 -0.6624581 -0.49098766 -0.55552566
0.12067205 -0.55064315 -0.97846085 -0.24547346 -0.5778452 -0.7767027 -0.09851544 -0.520844
-0.76535016 0.0016561495 0.2272599 0.07861847 0.0047819396 0.16582277 0.15371698 -0.25990656
0.017252645 0.07629568 -0.2224626 -0.061075408 -0.030975584 -0.041204408 0.0144692315 -0.14100632
0.01806151 0.2478687 0.031055165 0.18534857 -0.24571113 -0.59776074 -0.31066367 -0.89638394
-0.9563988 -0.95795244 -1.0465496 -1.1807866 -0.23758061 -0.13564427 0.038728695 -0.009106131

conv3.bias f4 [64]
00000000: 623b 93be 784e e73d c912 3a3b 500d ee3c
00000010: dddd 603e 1c71 79bd e34d 983d d026 27be
00000020: a821 97bd 7bcc 8d3e 1f4a 3f3e 9c19 20be
00000030: 5791 ccbc d568 f7bd 26ed 513e fdc3 22be
00000040: e7ba 8b3e e9c0 4dbe 6bb6 2e3d d8c8 22be
00000050: 64ef 79bc b236 2dbe 30c7 56be 31f0 dfbc
00000060: 48d3 693d 1643 7fbe 4b48 0fbe 65c3 f2bd
00000070: 0271 e6bd b7c4 d4bd ae36 443e 0c3a 16bc
00000080: 1755 53bd 115f 73be 1caf 583e 8558 f7bb
00000090: 3e21 ad3c 3313 27be 9763 5bbe 28bd d0be
000000a0: 22e9 e7bd 0bc0 483e 809b 1b3e 33f5 27be
000000b0: 4e6e 943d bd33 ac3e ddef f93d 22c8 9e3d
000000c0: f7df 9ebc 2d16 43be 68ad a93e d82a 1f3e
000000d0: 7d26 43be 4218 7ebe fb71 9bbe 330c c8bd
000000e0: 5deb c63e 721c 25be 404d 98bd 59e1 26be
000000f0: b605 12be 425b e0bd 92cd 74be 57b8 9b3e
-0.28756243 0.112942636 0.0028392544 0.029059082 0.21959634 -0.060898885 0.07436731 -0.163234
-0.07379466 0.2769507 0.18680619 -0.15634769 -0.024971647 -0.12080542 0.20500621 -0.15895076
0.27291033 -0.2009312 0.042654436 -0.15896928 -0.015254829 -0.16915396 -0.20974422 -0.027336212
0.05708626 -0.24927935 -0.13992421 -0.11853675 -0.11252023 -0.10389083 0.19161484 -0.009169113
-0.05159482 -0.23766734 0.21160549 -0.007548394 0.021134015 -0.16315918 -0.2142471 -0.40769315
-0.113237634 0.19604509 0.15196037 -0.1640213 0.072476014 0.33633223 0.122039534 0.07753016
-0.019393904 -0.19051428 0.3314011 0.15543687 -0.19057651 -0.24813941 -0.30360398 -0.09767952
0.38851443 -0.16124132 -0.07436609 -0.16296901 -0.14259991 -0.10954906 -0.23906544 0.30414078

fc1.weight f4 [64, 64]
00000000: c6e4 acbc 8320 a4b9 e1af 91bd 8f61 9d3c
00000010: d6e8 1abd b8b8 82bd 5125 a43d 2355 563d
00000020: aaeb b5bd 106c cbbc 4ab5 20be c26b 09be
00000030: ad12 bdbd 3b21 6c3d c28f 0fbd 0509 e2bd
00000040: ec94 7b3d c7e4 b03d 176f 98bd e373 85bd
00000050: 43cf f33b 1da8 813d 9b94 9fbc 11ea 44bb
00000060: 81ca c6bc 9d78 adbd 81d5 bd3d 289d 673c
00000070: 88f0 523d 9169 b6bd 9182 0d3d 828c c13d
00000080: 06df 7ebd f71b 67bd 8bc2 653d abb7 923d
00000090: 8288 9a3d 98f5 f8bd 9d2d 973d 7a22 aebc
000000a0: 7dff e13d e8f2 503d 3a0e fdbd 4c25 ddbd
000000b0: ace9 bb3b 1f57 9fbd 48a2 6fbd cdb4 e4bd
000000c0: 0439 90bc cf49 46bd 3f27 79bd 43dc 07be
000000d0: 59d6 1ebc 25e9 29be 6521 febd be2f 3c3d
000000e0: 6c11 703b c982 693d 8cdf dabb adb4 70bd
000000f0: 10d1 d7bb a2cb be3d 5e50 c4bd d49e 91bc
00000100: 473e c93e d02d cf3c eccc e53e 6a88 c63d
00000110: 0217 01c0 8d38 3bc0 b9fe 043e 405e 653f
00000120: af14 55bf c114 4e3e f2a1 e0bd aa07 d23c
00000130: 22fa c0bf 158a c93d 4f6e d6be aac7 fbbe
00000140: 04ad 1d3e 860b 5a3e 8db9 25bd 2594 393e
00000150: 3504 45bc b6a7 d93d b6e0 6abf 7f4a 0ebf
00000160: 05e8 fcbd cdbd 56bd ef67 703e 0271 c7be
00000170: 0b08 be3d 8b8f aebd 4534 cb3d 61e7 fd3e
00000180: d056 6e3e e600 dfbe 3b32 e03d 716f 7fbe
00000190: b568 95be 5ce3 b03d 6634 dabe fc5b 2a3f
000001a0: 1295 fa3e 1199 84bd 4b07 3abc 67db 9b3e
000001b0: 32d4 08bf a447 2c3d f3c3 5e3e 3a13 2e3e
000001c0: a47e d0bf 87b9 22bf 0019 dfbd 2c2b 6fbe
000001d0: 8196 6e3d aced 783d 2eca 6f3f 2b8e ddbe
000001e0: 0313 093e 3648 c8bf bed6 3dbe 07eb 873f
000001f0: 026c 43be 8f0c 683d 5cd4 263f 41cb 0b3f
00000200: 9606 1dbd 3e6d 07be daa1 b1bd ef4e a83d
00000210: bed5 a33c 1855 fbbd 7d47 fdbd 475b 21be
00000220: 23b8 873d b052 efba 52dd 813d 0e1a 7bbd
00000230: c301 323d 0642 cbbd 1aec cbbd cf37 a5bd
00000240: 0d92 463c e5da 3fbc c537 ae3c 6f46 79bc
00000250: c496 193d 56d0 14be 50cd 60bc 4178 fcbd
00000260: e37b b13c d2ad 1abe eb2f 9cbd 176b aabd
00000270: e0d4 14bc 7eab 2abd 76fd ca3c 7829 15be
00000280: 8c55 f7bd 95c2 c13d d6ee 0fbd b42e ccbc
00000290: 6690 b7bd 2637 0fbe 9da2 9b3c 8e68 163c
000002a0: e69a acbc 13d3 f73c f227 1bbe 5e27 5e3b
000002b0: ebd0 aabd 277c dabc e4a4 afbc 29fe b1bd
000002c0: 1132 9a3d 6c70 6ebd 36e7 26bd 9f7e 88bd
000002d0: 3198 00be 3e34 873d 4e82 e8bd 0f1a a3bd
000002e0: e4eb f9bd 1809 8f3d f482 b5bd d599 0fbe
000002f0: eb50 bdbd 2c20 093d a5f2 e0bb 251e 42bc
00000300: 918a 9a3e 82f8 ac3e 0056 82be 0b79 18bd
00000310: 17be a5be b40a 00be 8281 443e 4a51 4b3e
00000320: dff9 9cbe 9f84 10bd f1ff 843e 2cbf 8fbe
00000330: f7c2 e03d 42f0 b03d b3b5 5d3d b845 223e
00000340: 3959 bcbe 0ff0 233f 69d6 bf3d f73c 9ebd
00000350: 046b 9ebd 719d ad3e a44a d13d a9cc 053e
00000360: f8f6 943d b890 9fbe 2d22 7e3e 509c 583e
00000370: 3299 af3d fd7d d63e f6d8 433d fbbb ef3d
00000380: b26d ff3c 11cf 243f 1a0d 6cbd 4d13 513e
00000390: 5c59 ea3d 8e18 69be de88 a23e 9dad ae3e
000003a0: a348 cc3e 7a4b cb3d 7ff1 153b 2a5e ec3e
000003b0: afc9 003e ed9d 9cbe 7b46 203c 1ed2 a03e
000003c0: 2e43 61bd 6871 9f3d 24dd d9bc 304a 403e
000003d0: ea0f ee3e bd67 6b3e 869a adbd cd31 613e
000003e0: 1438 65bd 5aba b2bd d6bb 59be c8a5 283f
000003f0: 1557 2b3f f613 adbd 0013 083d db95 853d
-0.021105181 -0.0003130474 -0.07113624 0.019211559 -0.037819706 -0.063828886 0.0801493 0.052327286
-0.0888284 -0.024831802 -0.15694156 -0.13420013 -0.09232078 0.05764888 -0.035049208 -0.110368766
0.06142132 0.08637386 -0.07443064 -0.06516244 0.007440479 0.06330893 -0.01948004 -0.003004674
-0.024266483 -0.08470271 0.09269238 0.01413659 0.05149892 -0.08906854 0.034548346 0.09450628
-0.06222441 -0.056423154 0.056093734 0.07163938 0.07545568 -0.12156218 0.07381747 -0.021256674
0.11035059 0.051012903 -0.12356229 -0.107981294 0.005734643 -0.07780289 -0.058504373 -0.111672975
-0.017605312 -0.048410233 -0.060828444 -0.13267617 -0.009694659 -0.16592844 -0.12408713 0.045943968
0.0036631478 0.057009492 -0.006679481 -0.058766056 -0.0065862015 0.093161836 -0.09585641 -0.01777593
0.39305326 0.0252904 0.44882905 0.09693988 -2.0170293 -2.9253266 0.12987794 0.8959694
-0.83234686 0.20125104 -0.109683886 0.02563842 -1.5076334 0.0984079 -0.41881034 -0.4917577
0.15398031 0.21293458 -0.04046016 0.18122919 -0.012024929 0.106276914 -0.9174913 -0.5558242
-0.12348942 -0.052427102 0.23477148 -0.38953406 0.09278878 -0.085234724 0.09922079 0.4959059
0.23275304 -0.43555373 0.10947081 -0.24944855 -0.29181448 0.08637115 -0.42618102 0.66546607
0.48941857 -0.064745076 -0.011354278 0.30440828 -0.53448784 0.04206051 0.21754436 0.16999522
-1.6288648 -0.6356434 -0.1089344 -0.23356313 0.058249 0.060773537 0.93667877 -0.43272528
0.13386159 -1.5647037 -0.18538949 1.06186 -0.1908417 0.0566526 0.65167785 0.54607016
-0.03833636 -0.13225266 -0.08673449 0.082181804 0.019999381 -0.1227209 -0.12367151 -0.15757476
0.06626918 -0.0018258896 0.063410416 -0.061304145 0.04345871 -0.09924702 -0.09957142 -0.08067285
0.012119782 -0.011709903 0.021266827 -0.015214547 0.037497297 -0.14532599 -0.013720825 -0.12327624
0.02166552 -0.1510537 -0.07626327 -0.08321207 -0.0090839565 -0.041667454 0.024779063 -0.145666
-0.12076864 0.09460942 -0.03513988 -0.024924614 -0.08963089 -0.13985881 0.018998438 0.009180201
-0.021069955 0.030252015 -0.15151957 0.0033897976 -0.08340629 -0.026670529 -0.02144093 -0.08691055
0.07529081 -0.058212683 -0.040747844 -0.06664776 -0.12558056 0.06601761 -0.11352979 -0.07963955
-0.12203196 0.06984156 -0.08862868 -0.14023526 -0.092439495 0.033477947 -0.006864863 -0.011848007
0.30183843 0.33783346 -0.25456238 -0.03722481 -0.3237159 -0.12504083 0.19190028 0.19855228
-0.30659387 -0.035282727 0.25976518 -0.2807554 0.109746866 0.086395755 0.05412836 0.15846908
-0.3678682 0.64038175 0.09367067 -0.07726472 -0.07735255 0.3390918 0.10219315 0.13066353
0.07273668 -0.311651 0.24817725 0.21153378 0.085741416 0.41892996 0.047814332 0.11705776
0.031180236 0.6437846 -0.057629682 0.20417519 0.11442825 -0.22763273 0.31745046 0.3411683
0.39899167 0.099265054 0.0022879539 0.4616559 0.12576936 -0.30589238 0.009782429 0.31410307
-0.05499571 0.077853024 -0.026594706 0.187783 0.46496516 0.22988792 -0.08476739 0.21991654
-0.055961683 -0.0872695 -0.2126306 0.6587796 0.6692975 -0.08451073 0.033221245 0.06522723

fc1.bias f4 [64]
00000000: b3b9 ae3d 7009 d6bd 7293 0abe 8cfd 9bbe
00000010: 065e 04be f690 95bd ac30 9cbd 1c9a cd3d
00000020: 81bf 9f3d 3b55 b7be eb03 863e 9fa6 aebd
00000030: 49cd c63e 1b79 2bbe 38e8 aa3c 1964 57bc
00000040: 3617 17be 815f 8dbd 983a 07bd 9ce3 c83d
00000050: 59a0 00bf f589 cdbd dea4 04bd 5825 363c
00000060: 2e4d 01be 9ae3 01be 6a0c db3d 2bd2 e7bd
00000070: a6ef 133e d9f3 b4bd 0c97 ffbd fe14 06be
00000080: 05ac c13d 27c9 4c3e f43e 99bd df21 07be
00000090: 2346 a73e a908 d2be 1e47 b03c af75 b9bd
000000a0: 650f 8ebe b9e6 363d 4c7c 2cbd f308 ea3e
000000b0: 9ec9 03be 9ef3 89bc 277f afbd ddd1 14be
000000c0: 1a7d a0be f7c9 ad3e 283a 05be dd97 d13e
000000d0: 8f34 b5bd ab1c 65bd 57b9 e0bd 4a25 8ebd
000000e0: 87ff 87be 6a09 ba3d 2082 fcbd 3c5b 443e
000000f0: 6db7 e6be 1af3 a1bd 80df cd3d 9499 abbd
0.08531513 -0.10451019 -0.13532808 -0.30466878 -0.12926492 -0.0730304 -0.07626471 0.1003916
0.07800198 -0.35807213 0.26174864 -0.08527874 0.38828495 -0.16745417 0.020862684 -0.013146424
-0.14754948 -0.069029815 -0.033014864 0.09809038 -0.5024467 -0.10036079 -0.032383792 0.011117302
-0.12627098 -0.1268448 0.10695727 -0.11319383 0.14446887 -0.08835573 -0.12479982 -0.13093945
0.09456638 0.19998609 -0.074827105 -0.13196515 0.32670698 -0.41022232 0.021518286 -0.090556495
-0.2774612 0.044653628 -0.042110726 0.45709953 -0.1286988 -0.016839799 -0.08569174 -0.14533181
-0.31345445 0.3394315 -0.13010466 0.40936175 -0.088479154 -0.055935543 -0.10972851 -0.06940706
-0.2656214 0.09083827 -0.12329507 0.19175428 -0.45061818 -0.07907696 0.10052395 -0.08378902

fc2.weight f4 [4, 64]
00000000: 836e 33bc 5e40 1f40 08d7 2f3d 4450 573e
00000010: d0b6 123d 081b 943d e08b 833d 0c25 35bd
00000020: c837 f03c 50e0 173f 6933 97be 7d5e 713d
00000030: ca24 eebe c90c d93e b6d4 78bf c4c9 f2bd
00000040: 6ed1 993d 411c 81be 463f 153c e8d7 8bbd
00000050: 6d75 013e 2c7a ac3d 9071 c1bd b581 943d
00000060: 4126 e0bd c820 d83c ca6e c23d 6bd2 a53c
00000070: b253 4bbf 0237 10bd be55 77bc 18f0 41bd
00000080: 317c 173d 989f 78be 9cdc 513f 6ee1 bd3d
00000090: d2cf 023e 02d2 e73f 1114 64bc f066 2a3c
000000a0: dfd7 393d 4412 613e a6ec 13c0 d6c9 a6be
000000b0: 68ed 3ebd c4e0 1e3f 400b e23d c35b 38bf
000000c0: 171f 8e3e 0b3b e2be 6167 2b3d dacb f6be
000000d0: ee80 5bbd d63c 8ebd 8ef8 00bd 8073 ebbb
000000e0: e01e 19be 8732 b33e ceaa b73d f02b b0be
000000f0: 6980 1a3f 82c7 9a3d 87f9 a73c 57cd 8d3d
00000100: e32e 23bd 623c c63f c615 f53c cef7 ae3e
00000110: df7b d1bc ac78 743d 0a51 84bd 0e09 833f
00000120: cff2 55bd 051e 173f 1314 6dbd 8694 83bf
00000130: d1af f8be 20b5 7a3f 35b7 00bf 0ca9 483d
00000140: b3ab debc d585 45bf 8ec6 ae3d d1a9 c43d
00000150: b8b4 333e 881a c3bd f84e a43d 83e4 043c
00000160: a6da 1b3f 78e2 613b c619 eabd dfe1 c2bc
00000170: 77a5 c2bb 965f b8bb 19d7 f7bc ee60 19bd
00000180: e17d 813c 2575 d5be 849f 38bf afe4 07be
00000190: e205 05bf f45b db3f fe0e d13d 22fa fd3d
000001a0: 7fab ce3f c3a4 84bf 30ee 93bc 31b7 eebe
000001b0: 6dde bd3d e858 34be 0919 91bd 60ed 38bf
000001c0: 3e1e a33e 4267 a0bd 8f8a 3f3f dfea 81be
000001d0: ce87 8fbd 5d6c 233d 4eda cfbd 1853 9dbc
000001e0: 34e3 bebe 1d79 863e 8c37 e83d 381c 12bf
000001f0: 8d2c 973e cd49 853d 0fb5 febd e866 b93d
00000200: 3326 9a3d 5d9c 34bf 4a24 fb3c 6a62 053f
00000210: c8ed a9bd 18ae 3a3d dc12 8e3d 15cf fbbf
00000220: 0564 62bd 7e8d 3d3f 9fd8 80be 1bdb f33e
00000230: b9fc 1cbf bdaa 543e b93c 253e ef2f 923d
00000240: c906 f63c 4815 7fbf 2caa 70bc a761 6fbd
00000250: f175 78be 0646 edbd 2695 003d 4945 98bc
00000260: 7204 0ebb 20dd 553d 86c8 c93d 363e c83d
00000270: a19f 693e 057a 573d 887c f3bd 100f 293d
00000280: fa82 8c3d b39b 1abf e13c a43d 9e7d be3d
00000290: 5841 573e a07a 0640 5300 963d 00be 113b
000002a0: 0c95 38c0 ec77 753f fb77 c1be c330 15bf
000002b0: c31a 953d 211a 043f 61bc 133c 1906 b5bd
000002c0: f3bd ab3d 5c8f abbe b09f f0bd 3270 d8bd
000002d0: eaa7 3b3d 42a1 bcbd 1ec1 aabd 2c96 313c
000002e0: e655 e9bf e273 f93e 6852 b53c 42b6 66be
000002f0: d610 b63e d45e bdbd 68f8 153d a35b b6bd
00000300: afe5 5a3c fe8e fcbf 032a 0ebc b1f4 4b3e
00000310: 5c37 4dbd 9705 a2bd 40d4 1bbc 3677 26bf
00000320: d34a 383b b31d b13e c270 25bf 6873 ecbf
00000330: c71e 83be 5abd 843f cbae 78bf a9da 253d
00000340: 542b bc3d 2f27 453f 0842 8bbd 01bb 1a3b
00000350: f855 cebf f495 913d 7474 d13d 38e8 823d
00000360: 52ce 493f 1eb7 fcbd 561d e93b 5e95 aa3d
00000370: 6553 a93e 30c8 273d 6ea3 c43a 9637 34bc
00000380: 7071 9d3c b14b 3cbe 1fae 173e a39b eb3c
00000390: 6089 ccbe b63d 3140 9300 4d3c 9701 533c
000003a0: de58 7ebf 09b8 14be b50d 983d c31a 97be
000003b0: 8795 f1bd 8b2a 56be 57fa d13d 0871 173f
000003c0: ab97 003f 3475 aebe 211f 303f f170 03bf
000003d0: a9a3 b83d 6265 a53d 2acd 3cba 6501 1b3d
000003e0: a11f df3e b7fd 143e 4821 8b3d 9941 85be
000003f0: 7ba0 fbbf c5f7 253d a6f3 6b3d c038 ee3d
-0.010951641 2.4883037 0.04292968 0.21026713 0.035818875 0.07231718 0.064231634 -0.044224784
0.029323474 0.5932665 -0.2953141 0.058928 -0.46512443 0.42392567 -0.9719957 -0.1185489
0.07510649 -0.2521687 0.009109324 -0.0682829 0.1264245 0.0842174 -0.094454885 0.07251302
-0.10944796 0.026382819 0.094937876 0.020241937 -0.79424584 -0.03520871 -0.015096126 -0.047348112
0.036983673 -0.2427963 0.8197725 0.09271513 0.1277459 1.8110964 -0.0139208 0.010400519
0.045371886 0.21979624 -2.3113189 -0.32575864 -0.046613127 0.62061715 0.11037302 -0.7201502
0.27758095 -0.4418567 0.041846637 -0.482024 -0.053589754 -0.06945197 -0.03148704 -0.0071853995
-0.14953184 0.34999487 0.08968125 -0.34408522 0.6035219 0.07557584 0.020504726 0.06923931
-0.039839637 1.5487177 0.029917609 0.34173435 -0.025571762 0.059685394 -0.064607695 1.0237138
-0.052233513 0.5903018 -0.057880472 -1.0279701 -0.48571637 0.97932625 -0.5027955 0.04898934
-0.027181482 -0.77157336 0.08533965 0.096027024 0.17549407 -0.09526545 0.080228746 0.008111122
0.60880506 0.0034467261 -0.11430697 -0.023789344 -0.005940135 -0.005626629 -0.030253934 -0.037445955
0.015807094 -0.41690937 -0.721184 -0.1327083 -0.519621 1.7137437 0.10207938 0.12401225
1.6146086 -1.0362781 -0.018057913 -0.4662414 0.0927094 -0.1761204 -0.07084853 -0.72237206
0.3185901 -0.07832195 0.748208 -0.25374505 -0.070083246 0.039898265 -0.1014906 -0.019204661
-0.37282717 0.26264277 0.1133872 -0.5707431 0.29526177 0.06508217 -0.12436878 0.09052831
0.07526817 -0.7055109 0.030656952 0.5210329 -0.08297306 0.045576185 0.06937191 -1.9672571
-0.055271167 0.74044025 -0.2516527 0.47628102 -0.61323124 0.20768256 0.16136445 0.07138049
0.030032532 -0.9964185 -0.01468901 -0.058442738 -0.24263741 -0.115856215 0.03139224 -0.018587725
-0.002167013 0.052212834 0.098527 0.09777491 0.228148 0.0526066 -0.11888987 0.04127413
0.06860919 -0.6039383 0.08019424 0.09301303 0.2102102 2.1012344 0.073242806 0.0022238493
-2.884097 0.9588611 -0.3778685 -0.5827753 0.07280495 0.5160237 0.009017081 -0.08839054
0.08385839 -0.33507812 -0.11749208 -0.105682746 0.045814432 -0.09210445 -0.083376154 0.010839026
-1.8229339 0.48721224 0.02213402 -0.22530463 0.3555972 -0.09246603 0.03661385 -0.08904197
0.013360425 -1.9731138 -0.008677009 0.19917561 -0.050101623 -0.079112224 -0.009511054 -0.6502565
0.002812077 0.3459297 -0.6462518 -1.8472719 -0.2560942 1.0370286 -0.9714171 0.040491734
0.09187952 0.77012914 -0.06799704 0.0023609998 -1.6119986 0.071086794 0.1022729 0.063919485
0.78830445 -0.12339614 0.007114093 0.08329271 0.33071437 0.040962398 0.0015002319 -0.010999581
0.01921913 -0.18388249 0.14812516 0.028760737 -0.3994856 2.7693915 0.012512344 0.012878797
-0.9935435 -0.14523329 0.074244894 -0.29512605 -0.11796098 -0.20914666 0.10252827 0.59156847
0.50231427 -0.34073794 0.687975 -0.5134421 0.09015591 0.08075978 -0.00072022027 0.037843127
0.43578818 0.1454991 0.06793457 -0.2602661 -1.965835 0.040519495 0.057605408 0.11631918

fc2.bias f4 [4]
00000000: 4cd3 8dbe b3af e3be 5fb5 63be ba08 78b9
-0.2770027 -0.44469985 -0.22237156 -0.00023654374
