target_net.pth (torch, 114283 bytes, 10 tensors)

conv1.weight f4 [16, 1, 3, 3]
0	0x3fff378a	1.9938824
1	0xbe99cbb4	-0.30038226
2	0xbef09658	-0.46989703
3	0x3f05a20d	0.52200395
4	0xbef88b93	-0.48543987
5	0x3efa74b2	0.48917156
6	0xbe209330	-0.15681148
7	0x3ef58ea4	0.4796039
8	0x3f1d04ec	0.61335635
9	0xbe62bc80	-0.2214222
10	0x3fc82aed	1.56381
11	0x3ca44d54	0.020056404
12	0x3ce90129	0.028442936
13	0x3dbe6284	0.09296134
14	0x3fefb501	1.8727113
15	0x3f6a0d97	0.91426986
16	0x3ff94fad	1.947744
17	0x3f59cbbf	0.85076517
18	0x3e856238	0.26051497
19	0xbea7ab66	-0.32747954
20	0xbd91a885	-0.07112221
21	0xbee9a8b1	-0.45636514
22	0xbea72baa	-0.326505
23	0xbe93a45a	-0.28836328
24	0x3f206cac	0.6266582
25	0x4082c184	4.0861225
26	0xbd712f12	-0.05888278
27	0xbf0aad60	-0.541708
28	0x3ef877ea	0.48528987
29	0x3f15a166	0.584494
30	0xbf40527b	-0.75125855
31	0x3e8318a1	0.25604728
32	0xbe98dc91	-0.2985578
33	0x3fe5c79b	1.795154
34	0xbf16ee88	-0.5895772
35	0x406c62a6	3.693521
36	0x3d39a4cd	0.045323182
37	0x3e97f170	0.2967639
38	0xbe914fe9	-0.2838128
39	0x3dff2407	0.124580435
40	0x3ff259f5	1.8933703
41	0x3bb62a07	0.0055592093
42	0x3e021e70	0.12706923
43	0xbf82e44a	-1.0225918
44	0xbf634d3f	-0.88789743
45	0x3e93d776	0.2887532
46	0x40060ad1	2.0944102
47	0x3eb7999d	0.35859385
48	0x3fb12d93	1.3842033
49	0x3f307cfe	0.6894072
50	0x3d67ed79	0.056622956
51	0xbe02b76b	-0.12765281
52	0x3fa5cea4	1.2953687
53	0x3de3d060	0.11123729
54	0xbd7ccaed	-0.061716963
55	0xbecb1090	-0.39661074
56	0xbe37c0f1	-0.17944695
57	0xbf214ef1	-0.6301108
58	0xbea297c0	-0.317564
59	0x3dd69689	0.10477931
60	0xbebaadbc	-0.36460674
61	0x3d927eab	0.07153066
62	0xbe1b9d80	-0.151968
63	0xbeb5b3f0	-0.35488844
64	0x3d0dc898	0.03461513
65	0xbdd9c4fe	-0.106332764
66	0xbea0ad15	-0.3138205
67	0x3e5772aa	0.21039835
68	0x3ed6a34a	0.41921455
69	0xbe3e821b	-0.18604319
70	0x3ebe49d5	0.37165704
71	0xbeb1e191	-0.34742406
72	0xbf086c63	-0.53290385
73	0xbf40b2e0	-0.7527294
74	0xbeea4b3b	-0.4576052
75	0x40177a6b	2.3668468
76	0x3de98e29	0.11404068
77	0x3ef033f4	0.46914637
78	0x3eea5323	0.45766553
79	0x3f70449c	0.9385469
80	0x3ea494bc	0.32144725
81	0xbe81fa38	-0.25386214
82	0xbdc81129	-0.09768898
83	0xbec729b6	-0.3889901
84	0xbeaca2cf	-0.33717963
85	0xbded0e90	-0.11575043
86	0x3d9a60c3	0.07537987
87	0xbf0c0870	-0.54700375
88	0x400bf2a0	2.1866837
89	0x3dba7053	0.091034554
90	0xbee84a28	-0.45369077
91	0x3efe1196	0.49622792
92	0xbf27c09d	-0.6552828
93	0x3f1c222d	0.6098965
94	0x3e220b28	0.15824568
95	0xbf577a5c	-0.8417108
96	0xbf450184	-0.7695544
97	0xbf11e540	-0.5699043
98	0xbf5b875e	-0.8575343
99	0xbf05d4d7	-0.5227789
100	0x3fb19182	1.387253
101	0x3e92c4ed	0.28665867
102	0xbe7b65b2	-0.24550512
103	0xbf1ff825	-0.62488014
104	0x3e490677	0.19631372
105	0xbf08baf3	-0.5341026
106	0xbf89ff36	-1.0781009
107	0xbe03e5ef	-0.12880681
108	0xbe10559d	-0.14095159
109	0xbe4e6a54	-0.20157748
110	0xbf04c76d	-0.518668
111	0xbea0d626	-0.31413382
112	0xbe8421d8	-0.2580707
113	0xbf11be11	-0.56930643
114	0x3e621dbb	0.22081654
115	0x3ebd9490	0.37027407
116	0xbe8f7034	-0.28015292
117	0x3f086ed2	0.532941
118	0x3f4250f5	0.7590478
119	0xbef16065	-0.47143856
120	0x3da766dd	0.081739165
121	0xbe23f10b	-0.1600992
122	0xbe15a257	-0.14612709
123	0xbe85c526	-0.26126975
124	0x3da60b7e	0.08107661
125	0x3e0f17ef	0.13973974
126	0xbe64b653	-0.22335176
127	0x3d29cb88	0.04145387
128	0xbcb99cfa	-0.02265786
129	0xbdb7809a	-0.08960076
130	0x3e4ad4ce	0.19807741
131	0xbe56e175	-0.20984443
132	0x3dfd367d	0.123639084
133	0x3d72f09e	0.0593115
134	0x3decf5a1	0.115702875
135	0x3c53f5cf	0.012937023
136	0x3e3e588f	0.1858847
137	0x3f84314a	1.0327542
138	0x3c216932	0.009851741
139	0xbe79c98f	-0.24393295
140	0x3ed11561	0.40836623
141	0x3d94351c	0.07236692
142	0x3be18868	0.006882716
143	0xbee4d6cd	-0.4469513

conv1.bias f4 [16]
0	0xbe980435	-0.2969071
1	0x3edede85	0.43529144
2	0xbde3aac9	-0.11116559
3	0x3e8c47e6	0.27398604
4	0x3cd627ba	0.02614199
5	0x3de632a2	0.11240126
6	0xbeddbe1e	-0.4330911
7	0x3ee1f232	0.44130093
8	0x3eb0ce1d	0.34532252
9	0x3e4b3019	0.19842567
10	0xbe0d1503	-0.13777547
11	0xbebdeecb	-0.37096247
12	0x3d06980c	0.032859847
13	0x3e86518b	0.26234087
14	0x3f32ff8a	0.6992117
15	0x3ec851a7	0.39124796

conv2.weight f4 [32, 16, 3, 3]
0	0xbec762d1	-0.38942578
1	0x3d31f52f	0.043446716
2	0x3dd1a887	0.10237222
3	0x3ed90535	0.42386785
4	0xbf26e8c9	-0.6519895
5	0xbf18c786	-0.5967945
6	0xbb59c5fa	-0.0033229575
7	0xbe6f4c4d	-0.2336895
8	0xbec95068	-0.39319158
9	0x3ef2db7a	0.47433072
10	0xbefac9bb	-0.48982033
11	0xbcc3c484	-0.023897417
12	0x3de94de2	0.11391808
13	0x3e2e9559	0.17049159
14	0xbf24997e	-0.6429671
15	0x3e975610	0.29557848
16	0x3d82fe90	0.0639621
17	0xbecbc136	-0.39795846
18	0xbe4561c3	-0.19275574
19	0xbf3a8d11	-0.728715
20	0xbf2efa08	-0.6835027
21	0x3ecc6547	0.39921018
22	0x3e20b9a4	0.15695816
23	0x3e5bf63f	0.21480654
24	0x3dd001b9	0.101565786
25	0xbe31f03c	-0.17376798
26	0x3e16b661	0.1471801
27	0x3e173fec	0.14770478
28	0xbf0a114a	-0.5393263
29	0xbea6b0ce	-0.32556766
30	0x3e8549c1	0.26032832
31	0xbea741c2	-0.32667357
32	0xbe8e6a4c	-0.27815473
33	0xbeb1311d	-0.34607783
34	0xbe5d53d3	-0.21614008
35	0xbf3067a6	-0.68908155
36	0xbea846a2	-0.3286639
37	0x3d03086d	0.031990457
38	0xbeeecc48	-0.4664023
39	0x3ccb690b	0.024830362
40	0xbd43cd28	-0.047803074
41	0xbf0dcc2b	-0.5538966
42	0xbe71f692	-0.23629215
43	0xbf22f969	-0.6366182
44	0xbc2f67f9	-0.010705941
45	0xbf0c0848	-0.54700136
46	0xbf064f14	-0.52464414
47	0xbfa29d9c	-1.2704349
48	0x3e4d97aa	0.20077386
49	0xbe8b216a	-0.2717393
50	0xbfb2d3d1	-1.3970891
51	0x3d92d840	0.07170153
52	0xbdc77aaf	-0.09740197
53	0xbd49e0f3	-0.049286794
54	0xbed6dccc	-0.4196533
55	0x3e934f2e	0.28771347
56	0xbe205b6c	-0.15659875
57	0xbf92fe00	-1.1483765
58	0xbf4c7a16	-0.7987379
59	0xbe7c41a0	-0.24634409
60	0x3e101f3b	0.14074413
61	0x3ed46a7e	0.41487497
62	0x3ecc4f67	0.3990433
63	0x3ea236bd	0.31682387
64	0x3dd2e8e4	0.102983266
65	0x3c8657d0	0.016399294
66	0x3e7630e1	0.24042083
67	0x3d6e9e22	0.058256276
68	0xbdd15c5c	-0.10222694
69	0x3e056548	0.13026917
70	0x3e096381	0.13416864
71	0x3cf618c7	0.030041112
72	0x3edab45f	0.42715737
73	0x3e1c6e96	0.1527656
74	0x3f0aecd7	0.5426764
75	0x3ea34422	0.3188792
76	0xbdf6e0ba	-0.12054582
77	0xbdfaf559	-0.122538276
78	0x3e2c7903	0.16843037
79	0x3efa8360	0.48928356
80	0x3e84b6b2	0.25920635
81	0x3d9354dc	0.0719392
82	0x3d6dfcd8	0.05810246
83	0xbe741242	-0.2383509
84	0x3e2e2543	0.17006402
85	0x3c01640f	0.007897391
86	0xbd57904b	-0.052627843
87	0x3df057c3	0.11735489
88	0xbd9c04e8	-0.07618123
89	0x3e3f9b4f	0.1871159
90	0xbe87b2c1	-0.26503566
91	0x3c7304c5	0.01483268
92	0xbe393931	-0.18088223
93	0x3dda124b	0.1064802
94	0xbd4feb27	-0.050761368
95	0x3d3887a4	0.045051232
96	0x3e271447	0.16316329
97	0xbec0e181	-0.37672046
98	0xbf900a10	-1.1253071
99	0xbead8721	-0.33892158
100	0xbf02a385	-0.5103076
101	0xbe4e4344	-0.20142847
102	0xbe13c850	-0.14431882
103	0xbe573396	-0.21015772
104	0x3ba380dc	0.0049897265
105	0xbe44f774	-0.19235021
106	0x3e8d82cc	0.27638853
107	0xbe9c3b0b	-0.30513796
108	0x3e77ff16	0.24218401
109	0x3e997684	0.29973233
110	0x3df6b692	0.12046541
111	0xbdec10fd	-0.11526678
112	0x3c96a814	0.018390693
113	0xbe80ca0e	-0.25154155
114	0x3c02c72e	0.007982058
115	0x3dfcba97	0.12340277
116	0xbc8294db	-0.01594012
117	0xbe744cbe	-0.238574
118	0xbdd8051e	-0.10547851
119	0x3e1af605	0.15132912
120	0xbdb6a92c	-0.08918986
121	0x3e56661d	0.2093739
122	0x3e3542d2	0.17701271
123	0x3e87bfa0	0.26513386
124	0xbe6e0016	-0.2324222
125	0xbdeb17da	-0.11479159
126	0x3e822ba0	0.25423908
127	0x3e6669b7	0.22501265
128	0x3e8d4dd2	0.27598435
129	0x3e690070	0.22754073
130	0x3e1d517b	0.15363114
131	0x3d1bf435	0.03807469
132	0x3eb998a3	0.36249265
133	0x3e915b4b	0.28389964
134	0x3d361f51	0.04446346
135	0x3de51355	0.11185328
136	0xbe17f8c4	-0.1484099
137	0xbe4813e4	-0.19538838
138	0x3e1a4b71	0.15067841
139	0xbe49306a	-0.19647375
140	0xbe097016	-0.13421664
141	0x3c7108ba	0.014711553
142	0xbca6112c	-0.02027186
143	0xbe011acb	-0.12607877
144	0xbdef335b	-0.11679717
145	0xbde2b4e0	-0.110696554
146	0x3de3c654	0.111218125
147	0xbb83533d	-0.0040077255
148	0x3e6e63a0	0.23280191
149	0xbdac0a1d	-0.084003665
150	0xbf14ad47	-0.580769
151	0xbe8e3a2d	-0.2777876
152	0xbee56fc9	-0.44811848
153	0x3e4291b9	0.19000901
154	0xbe3fed52	-0.18742874
155	0xbe95209b	-0.29126438
156	0x3df53e8c	0.119748205
157	0xbf31086b	-0.6915347
158	0xbf14e105	-0.5815585
159	0x3c57af80	0.013164401
160	0xbf3fc6ad	-0.7491253
161	0xbf46e2ff	-0.7769012
162	0x3e76fd17	0.24119984
163	0xbe41bc65	-0.18919523
164	0x3e01aa38	0.1266259
165	0x3e9d1dfe	0.30686945
166	0xbd00ab2b	-0.03141324
167	0xbe1ae009	-0.15124525
168	0x3ea3978c	0.3195156
169	0xbd82d440	-0.0638814
170	0xbeedcad0	-0.46443796
171	0xbe21a24a	-0.15784565
172	0x3d283fc5	0.04107644
173	0xbdb9eca6	-0.0907834
174	0xbed09d78	-0.4074514
175	0xbdd3374c	-0.103132814
176	0xbbc08b27	-0.0058759633
177	0xbe5dfa44	-0.216775
178	0x3e679018	0.22613561
179	0x3dfd3643	0.12363865
180	0x3e38baf5	0.18040068
181	0xbe068623	-0.13137107
182	0x3e5aa59c	0.21352237
183	0x3ddbb61c	0.10728094
184	0x3e2d8286	0.16944322
185	0x3cdaba19	0.026700066
186	0x3def84c6	0.116952464
187	0xbbc4c51f	-0.006004944
188	0x3d6b935c	0.05751358
189	0x3de5924a	0.11209543
190	0x3dcfa9a3	0.101397775
191	0xbd86051a	-0.06543942
192	0x3e2bacd9	0.16765155
193	0x3d01046b	0.031498354
194	0xbca1fc50	-0.019773632
195	0x3e833bb0	0.25631475
196	0x3ef87e9e	0.485341
197	0xbfa225e8	-1.2667818
198	0x3e37c32e	0.17945549
199	0x3d4de378	0.05026576
200	0xbdca54c9	-0.09879453
201	0x3e191103	0.14947896
202	0xbb942435	-0.004520918
203	0xbdbdea04	-0.092731506
204	0x3cf60a26	0.030034136
205	0xbd8840f0	-0.06653011
206	0xbd65d095	-0.056107122
207	0x3e29c0c3	0.16577439
208	0x3d6ec728	0.0582954
209	0x3ded29bf	0.11580228
210	0x3d8ae1f9	0.06781382
211	0x3d99c17f	0.075076096
212	0x3ce99c0e	0.028516795
213	0xbd07ddde	-0.033170573
214	0xbc2fd6b8	-0.010732345
215	0x3ccaeaf8	0.024770245
216	0x3daea5f5	0.085277475
217	0x3c0baa7b	0.008524532
218	0xbe93d214	-0.28871214
219	0x3dc15ebf	0.094418995
220	0x3b954eb7	0.0045565027
221	0xbf102ca4	-0.56318116
222	0xbcec385b	-0.028835466
223	0x3e0aac0c	0.13542193
224	0xbec0ec98	-0.37680507
225	0x3dc5c8e2	0.09657456
226	0xbe0b8555	-0.13625081
227	0x3d03312e	0.032029323
228	0x3cd06ed5	0.025443474
229	0xbdcbcdb6	-0.099513456
230	0x3e1dc011	0.15405299
231	0x3cf5977a	0.029979456
232	0xbe2fb44f	-0.17158626
233	0x3e7d549a	0.24739304
234	0xbddb1104	-0.10696605
235	0xbe01b24c	-0.12665671
236	0xbdac1b09	-0.08403594
237	0xbe02953f	-0.12752245
238	0xbbeaab67	-0.007161546
239	0xbd829bb5	-0.06377355
240	0xbdc6baff	-0.097036354
241	0x3dbcf962	0.092272535
242	0xbe1b88fe	-0.15188977
243	0x3e263a14	0.16233093
244	0xbdab6bc7	-0.08370166
245	0x3ddbc5aa	0.10731061
246	0x3e1ba1d4	0.15198451
247	0xbecae370	-0.39626646
248	0x3d239092	0.039932795
249	0x3c39e885	0.011346941
250	0xbee8df39	-0.45482805
251	0xbe6d1ea1	-0.23156215
252	0xbd834d15	-0.064111866
253	0xbd90b3d1	-0.07065547
254	0x3e259ad8	0.1617235
255	0xbd872a8c	-0.06599912

conv2.bias f4 [32]
0	0x3e524cf7	0.20537172
1	0x3d2f373d	0.04277729
2	0x3e012545	0.12611873
3	0x3db9b0b6	0.09066908
4	0xbbe33c86	-0.006934705
5	0x3dd9f24c	0.106419176
6	0x3c8febff	0.017568586
7	0x3da0912d	0.0784019
8	0x3e1a8098	0.15088117
9	0xbc9e1342	-0.019296292
10	0x3dcd9581	0.10038281
11	0x3b270ad4	0.0025488632
12	0x3dd1b75b	0.102400504
13	0x3da5b96d	0.08092008
14	0x3e19e4bf	0.15028666
15	0x3e6954f3	0.22786312
16	0xbdf0bde6	-0.1175497
17	0x3ddd61c3	0.10809662
18	0x3e3f51b4	0.18683511
19	0x3dec8a7a	0.1154985
20	0xbe04f63a	-0.12984553
21	0xbd84ac4e	-0.06478177
22	0x3ddb3656	0.10703723
23	0x3dcd01e8	0.10010129
24	0x3dfbe582	0.122996345
25	0xbc983939	-0.018581973
26	0xbd8fb6fe	-0.07017325
27	0x3cd2a754	0.025714554
28	0x3dec2335	0.11530153
29	0x3cad1eb4	0.021132804
30	0x3cadfb38	0.021237954
31	0xbe175c29	-0.1478125

conv3.weight f4 [64, 32, 3, 3]
0	0xbceaffbd	-0.028686399
1	0xbdab2e0a	-0.08358391
2	0xbe1fbe7c	-0.15600008
3	0xbdb98c88	-0.09060007
4	0x3b201199	0.0024424552
5	0x3e333d69	0.17503895
6	0x3e36ac3c	0.1783914
7	0x3ed1351c	0.40860832
8	0x3edd6262	0.43239123
9	0xbe83ba77	-0.257282
10	0xbf18cc1e	-0.5968646
11	0xbed05ad3	-0.40694293
12	0xbee9c17f	-0.45655438
13	0xbf2f4792	-0.6846858
14	0xbf2d4c0c	-0.67694163
15	0xbefd7d93	-0.49509868
16	0xbf493fa6	-0.78612745
17	0xbf18cd3d	-0.5968817
18	0x3cc3defe	0.023910042
19	0x3e6c6159	0.2308401
20	0xbd6f0cc9	-0.058361802
21	0xbe1ef05f	-0.15521382
22	0xbd769133	-0.060197067
23	0xbe4bed02	-0.1991463
24	0x3d8e0f57	0.069365196
25	0x3dc70508	0.097177565
26	0xbd37bee7	-0.044859793
27	0xbe00e7e3	-0.12588458
28	0xbec3772b	-0.38176855
29	0xbf6d5293	-0.92704123
30	0xbf0ca0e8	-0.54933023
31	0xbeb1d32e	-0.3473143
32	0xbf1fc133	-0.62404174
33	0xbf14d2c5	-0.5813411
34	0xbeca175e	-0.39470953
35	0xbf248f5d	-0.64281255
36	0xbefdc027	-0.49560663
37	0xbeccc307	-0.39992544
38	0xbeafcc18	-0.343354
39	0xbeb26cc3	-0.34848604
40	0xbf1b1a97	-0.6058745
41	0xbf153d7f	-0.5829696
42	0xbe5a7a08	-0.21335614
43	0xbe15e41f	-0.14637803
44	0xbe10cd8c	-0.1414091
45	0x3df762cc	0.12079391
46	0x3ece7986	0.4032709
47	0x3e932389	0.2873805
48	0x3e0911b8	0.13385665
49	0x3e916713	0.28398952
50	0x3e3e7caf	0.1860225
51	0x3e452b95	0.19254906
52	0x3e1a389d	0.15060659
53	0x3d69d6af	0.057089504
54	0xbeb2882e	-0.34869522
55	0xbe2030cf	-0.15643619
56	0xbf013c2b	-0.50482434
57	0xbea8e929	-0.32990387
58	0xbe216e7f	-0.15764807
59	0xbe744dfd	-0.23857875
60	0xbf9c2d94	-1.2201409
61	0xbf3fb052	-0.7487842
62	0xbea6ea51	-0.32600644
63	0xbf2c3a48	-0.6727643
64	0xbecca99e	-0.39973158
65	0xbecb3957	-0.39692184
66	0xbf4a1e25	-0.78952247
67	0xbf3c454e	-0.7354325
68	0xbed8a4e1	-0.42313293
69	0xbf02f1d0	-0.51150227
70	0xbf114a0c	-0.5675361
71	0xbec06423	-0.37576398
72	0x3dfe74bc	0.12424609
73	0xbeafd2bf	-0.34340474
74	0xbe490ba0	-0.19633341
75	0x3caaedfc	0.020865433
76	0xbdf8d470	-0.12149894
77	0xbda7da0c	-0.08195886
78	0xbdbde625	-0.09272412
79	0xbe0c1492	-0.13679722
80	0xbd38f5b9	-0.045156214
81	0xbdd1755d	-0.102274634
82	0xbea60b78	-0.32430625
83	0xbe6fbb0a	-0.23411193
84	0xbdb68f8e	-0.089141
85	0xbe795030	-0.24346995
86	0xbdae4763	-0.0850971
87	0x3c0234a9	0.0079471255
88	0x3d415b4d	0.04720621
89	0xbcc61feb	-0.024185142
90	0x3dd60015	0.104492344
91	0x3e971f1a	0.29515916
92	0x3d268bdd	0.040660728
93	0x3e4dc8ef	0.20096181
94	0x3e0ea986	0.13931856
95	0xbdea51a7	-0.11441355
96	0x3df94464	0.121712476
97	0x3c198e7e	0.009372352
98	0x3d42513c	0.047440752
99	0x3f345783	0.7044603
100	0x3ecfa47e	0.40555185
101	0x3e8520c6	0.26001567
102	0x3f28172f	0.65660375
103	0x3ebef4b1	0.3729606
104	0x3e2314b8	0.15925872
105	0x3f230403	0.63677996
106	0x3ea0d7bc	0.31414592
107	0x3eac4b06	0.33650988
108	0xbe3c7ac4	-0.18406206
109	0x3d7269d7	0.059182968
110	0x3ca2efa1	0.019889655
111	0xbe1d4460	-0.15358114
112	0xbc9f3358	-0.019433662
113	0x3ce83936	0.028347593
114	0xbf214e73	-0.6301033
115	0xbed84799	-0.42242125
116	0xbea48e2b	-0.32139716
117	0xbdde6bfc	-0.1086044
118	0xbe975564	-0.29557335
119	0xbee883c4	-0.4541303
120	0xbe246267	-0.16053163
121	0xbeb986f0	-0.36235762
122	0xbeb2a8ed	-0.34894505
123	0xbda093ef	-0.07840716
124	0xbea376a8	-0.31926465
125	0xbf216acd	-0.6305359
126	0x3e126ad4	0.14298564
127	0x3d54b8f0	0.051934183
128	0x3d944259	0.07239217
129	0x3e4b4ff3	0.19854717
130	0x3e1f6363	0.15565257
131	0xbd069b2f	-0.03286284
132	0xbc1863ba	-0.00930112
133	0x3d78a3e7	0.060703184
134	0xbc074d8f	-0.0082582375
135	0x3dd6acc6	0.10482173
136	0x3e28c6c5	0.16482075
137	0x3e1ebfb1	0.15502812
138	0x3cfe04e0	0.031008184
139	0x3ee0a743	0.4387761
140	0x3ec5d2ec	0.38637483
141	0x3ec29393	0.38003215
142	0x3f02002f	0.5078153
143	0x3ed2222f	0.41041705
144	0xbe92c672	-0.28667027
145	0xbd49928e	-0.04921203
146	0xbe0439c8	-0.12912667
147	0xbe553d52	-0.20824173
148	0x3d878d75	0.06618778
149	0x3d7b49b7	0.061349597
150	0x3cff28c4	0.031147368
151	0x3e859670	0.26091337
152	0x3ea08a11	0.31355336
153	0xbf278c70	-0.65448666
154	0xbf342117	-0.7036299
155	0xbe5bc721	-0.2146268
156	0xbf5c24e7	-0.8599381
157	0xbf60de7e	-0.87839496
158	0xbebc0989	-0.36726025
159	0xbf87b14d	-1.0600983
160	0xbf86f070	-1.0542126
161	0xbf080159	-0.53127056
162	0xbdee0b85	-0.11623291
163	0x3e11ec72	0.14250353
164	0xbbe811cc	-0.0070821997
165	0x3d433ae0	0.04766357
166	0x3e0f2a0e	0.13980886
167	0x3df105cf	0.11768686
168	0x3ddaea84	0.106892616
169	0x3e39e2c2	0.18152907
170	0x3e34657e	0.17616841
171	0xbd3e730e	-0.046496443
172	0xbd815e25	-0.06316785
173	0xbc876c19	-0.016531037
174	0x3d3a82c9	0.045534883
175	0xbdaba614	-0.08381286
176	0xbc08e3ba	-0.0083550755
177	0x3e561e38	0.20909965
178	0xbcfcc0df	-0.030853687
179	0x3e0fde3e	0.14049622
180	0xbe93c48d	-0.28860894
181	0xbe35ce5e	-0.17754504
182	0xbe23dca0	-0.1600213
183	0xbe6bb292	-0.23017338
184	0x3d3a6802	0.045509346
185	0xbcdcec9a	-0.02696829
186	0xbe59f39c	-0.21284336
187	0xbd9b3d17	-0.07580011
188	0xbd80571c	-0.06266615
189	0x3ea55677	0.3229253
190	0x3ef8160d	0.48454323
191	0x3ec10737	0.37700817
192	0xbd2adc12	-0.04171378
193	0x3e7def36	0.24798283
194	0x3e78f589	0.24312414
195	0x3d7e27a8	0.062049538
196	0x3e4b142f	0.19831918
197	0x3e7a3ca2	0.24437192
198	0x3dcc50f0	0.09976375
199	0x3e0dc210	0.1384356
200	0x3e03cd27	0.12871228
201	0xbf0d0f80	-0.55101776
202	0xbea88b5c	-0.32918823
203	0xbe979111	-0.29602864
204	0xbebbbf39	-0.3666933
205	0xbe92d05b	-0.28674588
206	0xbcf75c3a	-0.030195344
207	0xbd506f02	-0.050887115
208	0xbf1cbda6	-0.6122688
209	0xbf673299	-0.9031158
210	0xbd9e4531	-0.07728041
211	0xbeb635c3	-0.35587892
212	0xbf165cd5	-0.587354
213	0xbf272784	-0.6529467
214	0xbefe5bce	-0.49679416
215	0xbf0d6c42	-0.55243313
216	0x3dee56f3	0.11637678
217	0xbf0f16a5	-0.5589393
218	0xbf768a50	-0.963048
219	0xbe7c5651	-0.24642302
220	0xbf131ba0	-0.5746403
221	0xbf44da85	-0.76895934
222	0xbdd1f60f	-0.1025201
223	0xbf02fc17	-0.5116591
224	0xbf40c9d1	-0.7530795
225	0x3b8d3a8c	0.004309958
226	0x3e67e4db	0.22645895
227	0x3d957652	0.072979584
228	0x3af9b761	0.0019051844
229	0x3e242431	0.16029431
230	0x3e148481	0.14503671
231	0xbe8a0fa9	-0.26965073
232	0x3b057320	0.002036281
233	0x3d6b384c	0.057426736
234	0xbe63cf70	-0.222471
235	0xbd81efb4	-0.06344548
236	0xbd206885	-0.039162178
237	0xbd050964	-0.03247966
238	0x3c4c8f8b	0.012485395
239	0xbe16888a	-0.14700523
240	0x3cb8d2c9	0.022561448
241	0x3e77983e	0.2417917
242	0x3cacdb13	0.021100556
243	0x3e34776d	0.17623682
244	0xbe7bbc87	-0.24583636
245	0xbf171252	-0.5901233
246	0xbe98e1c5	-0.29859748
247	0xbf62ecf9	-0.8864284
248	0xbf74d48a	-0.9563681
249	0xbf75e9c4	-0.96059823
250	0xbf842042	-1.0322344
251	0xbf998211	-1.1992818
252	0xbe71ddaa	-0.23619714
253	0xbe0c9e73	-0.13732319
254	0x3d206c60	0.039165854
255	0xbb5ac1d0	-0.0033379681

conv3.bias f4 [64]
0	0xbe935bfe	-0.28781122
1	0x3dea6b43	0.1144624
2	0x3b4b97b8	0.0031065773
3	0x3cdd0410	0.026979476
4	0x3e620a48	0.22074234
5	0xbd7bfcea	-0.061520495
6	0x3d9943c9	0.07483632
7	0xbe26ab75	-0.16276343
8	0xbd910af0	-0.07082164
9	0x3e8b0355	0.2715098
10	0x3e3c321f	0.18378495
11	0xbe1b413c	-0.15161604
12	0xbc8bcb57	-0.017064733
13	0xbdf768d5	-0.12080542
14	0x3e557d56	0.20848593
15	0xbe271a30	-0.16318583
16	0x3e8aab74	0.27083933
17	0xbe4e5393	-0.20149069
18	0x3d323069	0.0435032
19	0xbe24ae89	-0.16082205
20	0xbc79ef64	-0.015254829
21	0xbe2e19e8	-0.1700207
22	0xbe552ce5	-0.20817907
23	0xbcc0a4b7	-0.023516042
24	0x3d618ad0	0.055064023
25	0xbe7fda3a	-0.2498559
26	0xbe0ef446	-0.1396037
27	0xbdec1c4d	-0.115288354
28	0xbde67102	-0.11252023
29	0xbdd5a75b	-0.10432311
30	0x3e413405	0.188675
31	0xbc662616	-0.014047166
32	0xbd59ed9d	-0.05320512
33	0xbe7322cb	-0.23743741
34	0x3e5c4175	0.21509345
35	0xbaca75f9	-0.0015446536
36	0x3ca5c328	0.02023466
37	0xbe256ac7	-0.16154014
38	0xbe598df4	-0.21245557
39	0xbed0b624	-0.40763962
40	0xbde9ca5c	-0.1141555
41	0x3e468128	0.19385207
42	0x3e16ee86	0.14739427
43	0xbe2b9401	-0.16755678
44	0x3d921be9	0.0713423
45	0x3eae56e5	0.3405067
46	0x3deeb8cf	0.11656343
47	0x3d9529e3	0.0728338
48	0xbc68fac7	-0.014219946
49	0xbe3e8dc0	-0.18608761
50	0x3eab6268	0.33473516
51	0x3e1e0725	0.15432413
52	0xbe44645d	-0.1917891
53	0xbe7cfb93	-0.24705343
54	0xbe9a7d72	-0.30173832
55	0xbdbb81c6	-0.09155612
56	0x3ec65a45	0.38740745
57	0xbe237819	-0.15963782
58	0xbd96c5da	-0.07361956
59	0xbe2557c9	-0.16146769
60	0xbe1209ed	-0.14261599
61	0xbde05b42	-0.10954906
62	0xbe73e5bb	-0.23818104
63	0x3e9a37a3	0.30120572

fc1.weight f4 [64, 64]
0	0xbcace4c6	-0.021105181
1	0xb9a42083	-0.0003130474
2	0xbd91afe1	-0.07113624
3	0x3c9d618f	0.019211559
4	0xbd1ae8d6	-0.037819706
5	0xbd82b8b8	-0.063828886
6	0x3da42551	0.0801493
7	0x3d565523	0.052327286
8	0xbdb5ebaa	-0.0888284
9	0xbccb6c10	-0.024831802
10	0xbe20b54a	-0.15694156
11	0xbe096bc2	-0.13420013
12	0xbdbd12ad	-0.09232078
13	0x3d6c213b	0.05764888
14	0xbd0f8fc2	-0.035049208
15	0xbde20905	-0.110368766
16	0x3d7b94ec	0.06142132
17	0x3db0e4c7	0.08637386
18	0xbd986f17	-0.07443064
19	0xbd8573e3	-0.06516244
20	0x3bf3cf43	0.007440479
21	0x3d81a81d	0.06330893
22	0xbc9f949b	-0.01948004
23	0xbb44ea11	-0.003004674
24	0xbcc6ca81	-0.024266483
25	0xbdad789d	-0.08470271
26	0x3dbdd581	0.09269238
27	0x3c679d28	0.01413659
28	0x3d52f088	0.05149892
29	0xbdb66991	-0.08906854
30	0x3d0d8291	0.034548346
31	0x3dc18c82	0.09450628
32	0xbd7edf06	-0.06222441
33	0xbd671bf7	-0.056423154
34	0x3d65c28b	0.056093734
35	0x3d92b7ab	0.07163938
36	0x3d9a8882	0.07545568
37	0xbdf8f598	-0.12156218
38	0x3d972d9d	0.07381747
39	0xbcae227a	-0.021256674
40	0x3de1ff7d	0.11035059
41	0x3d50f2e8	0.051012903
42	0xbdfd0e3a	-0.12356229
43	0xbddd254c	-0.107981294
44	0x3bbbe9ac	0.005734643
45	0xbd9f571f	-0.07780289
46	0xbd6fa248	-0.058504373
47	0xbde4b4cd	-0.111672975
48	0xbc903904	-0.017605312
49	0xbd4649cf	-0.048410233
50	0xbd79273f	-0.060828444
51	0xbe07dc43	-0.13267617
52	0xbc1ed659	-0.009694659
53	0xbe29e925	-0.16592844
54	0xbdfe2165	-0.12408713
55	0x3d3c2fbe	0.045943968
56	0x3b70116c	0.0036631478
57	0x3d6982c9	0.057009492
58	0xbbdadf8c	-0.006679481
59	0xbd70b4ad	-0.058766056
60	0xbbd7d110	-0.0065862015
61	0x3dbecba2	0.093161836
62	0xbdc4505e	-0.09585641
63	0xbc919ed4	-0.01777593
64	0x3ec80ddb	0.3907307
65	0x3ce365a0	0.02775842
66	0x3ede913a	0.43470174
67	0x3dceb193	0.10092463
68	0xc000ced2	-2.0126233
69	0xc039ce7f	-2.9032285
70	0x3e1694ed	0.14705248
71	0x3f63d1a5	0.8899177
72	0xbf54775c	-0.8299463
73	0x3e48b1a4	0.19599015
74	0xbde0765b	-0.109600745
75	0x3cabea1c	0.020985655
76	0xbfc0c995	-1.5061518
77	0x3dc98a15	0.0984079
78	0xbed42578	-0.41434836
79	0xbf006902	-0.5016023
80	0x3e1d1a29	0.1534201
81	0x3e596795	0.2123092
82	0xbd1e211a	-0.038605787
83	0x3e3c49c3	0.18387513
84	0xbc450435	-0.012024929
85	0x3ddc4614	0.10755554
86	0xbf69c3d8	-0.9131446
87	0xbf0ce702	-0.5503999
88	0xbe00051b	-0.12501948
89	0xbd4fa6af	-0.05069607
90	0x3e704229	0.23462738
91	0xbec7759d	-0.3895692
92	0x3dbe080b	0.09278878
93	0xbdaddff7	-0.084899835
94	0x3dce6e29	0.10079605
95	0x3efbe1fc	0.4919585
96	0x3e72a7e2	0.23696855
97	0xbedd0911	-0.4317098
98	0x3de37ea4	0.11108139
99	0xbe7352ec	-0.23762101
100	0xbe8ea33b	-0.2785891
101	0x3db7222a	0.08942063
102	0xbed7bf10	-0.42137957
103	0x3f2a7a89	0.66593224
104	0x3ef9507f	0.48694226
105	0xbd7f4b55	-0.0623277
106	0xbbeb1d7d	-0.007175146
107	0x3e980703	0.2969285
108	0xbf07e03e	-0.5307654
109	0x3d2b35eb	0.041799467
110	0x3e5fc93f	0.21854113
111	0x3e348d47	0.17632018
112	0xbfcf44d2	-1.6192877
113	0xbf22902f	-0.63501257
114	0xbde3b445	-0.11118368
115	0xbe60f3e9	-0.21968044
116	0x3d6fa961	0.05851114
117	0x3d872f2f	0.066007964
118	0x3f6fd648	0.9368634
119	0xbed8657d	-0.4226493
120	0x3e081b89	0.13291754
121	0xbfc82472	-1.5636122
122	0xbe3b6b73	-0.18302707
123	0x3f87dd1c	1.0614352
124	0xbe3ad4eb	-0.18245284
125	0x3d680c8f	0.0566526
126	0x3f278f13	0.6545269
127	0x3f0ad11f	0.54225343
128	0xbd1d0696	-0.03833636
129	0xbe076d3e	-0.13225266
130	0xbdb1a1da	-0.08673449
131	0x3da84eef	0.082181804
132	0x3ca3d5be	0.019999381
133	0xbdfb5518	-0.1227209
134	0xbdfd477d	-0.12367151
135	0xbe215b47	-0.15757476
136	0x3d87b823	0.06626918
137	0xbaef52b0	-0.0018258896
138	0x3d81dd52	0.063410416
139	0xbd7b1a0e	-0.061304145
140	0x3d3201c3	0.04345871
141	0xbdcb4206	-0.09924702
142	0xbdcbec1a	-0.09957142
143	0xbda537cf	-0.08067285
144	0x3c46920d	0.012119782
145	0xbc3fdae5	-0.011709903
146	0x3cae37c5	0.021266827
147	0xbc79466f	-0.015214547
148	0x3d1996c4	0.037497297
149	0xbe14d056	-0.14532599
150	0xbc60cd50	-0.013720825
151	0xbdfc7841	-0.12327624
152	0x3cb17be3	0.02166552
153	0xbe1aadd2	-0.1510537
154	0xbd9c2feb	-0.07626327
155	0xbdaa6b17	-0.08321207
156	0xbc14d4e0	-0.0090839565
157	0xbd2aab7e	-0.041667454
158	0x3ccafd76	0.024779063
159	0xbe152978	-0.145666
160	0xbdf7558c	-0.12076864
161	0x3dc1c295	0.09460942
162	0xbd0feed6	-0.03513988
163	0xbccc2eb4	-0.024924614
164	0xbdb79066	-0.08963089
165	0xbe0f3726	-0.13985881
166	0x3c9ba29d	0.018998438
167	0x3c16688e	0.009180201
168	0xbcac9ae6	-0.021069955
169	0x3cf7d313	0.030252015
170	0xbe1b27f2	-0.15151957
171	0x3b5e275e	0.0033897976
172	0xbdaad0eb	-0.08340629
173	0xbcda7c27	-0.026670529
174	0xbcafa4e4	-0.02144093
175	0xbdb1fe29	-0.08691055
176	0x3d9a3211	0.07529081
177	0xbd6e706c	-0.058212683
178	0xbd26e736	-0.040747844
179	0xbd887e9f	-0.06664776
180	0xbe009831	-0.12558056
181	0x3d87343e	0.06601761
182	0xbde8824e	-0.11352979
183	0xbda31a0f	-0.07963955
184	0xbdf9ebe4	-0.12203196
185	0x3d8f0918	0.06984156
186	0xbdb582f4	-0.08862868
187	0xbe0f99d5	-0.14023526
188	0xbdbd50eb	-0.092439495
189	0x3d09202c	0.033477947
190	0xbbe0f2a5	-0.006864863
191	0xbc421e25	-0.011848007
192	0x3e9a4a72	0.30134922
193	0x3eaae616	0.33378667
194	0xbe8207da	-0.25396615
195	0xbd1c3a9b	-0.038141828
196	0xbeaa4b9e	-0.33260816
197	0xbe071b25	-0.13193949
198	0x3e3dd020	0.18536425
199	0x3e49d220	0.19709063
200	0xbe9bf762	-0.30462176
201	0xbd2221e8	-0.039583117
202	0x3e834674	0.2563969
203	0xbe8e4b9f	-0.2779207
204	0x3ddd724c	0.10812816
205	0x3db0f042	0.086395755
206	0x3d574233	0.052553367
207	0x3e189729	0.14901413
208	0xbebe5ca5	-0.37180057
209	0x3f23d01d	0.6398943
210	0x3db8e32e	0.09027706
211	0xbd9eb179	-0.07748694
212	0xbd9e6b04	-0.07735255
213	0x3ead446d	0.33841267
214	0x3dd05fc7	0.10174518
215	0x3e090f17	0.13384663
216	0x3d9023f5	0.07038108
217	0xbe9e8979	-0.30964258
218	0x3e7bbe1d	0.24584241
219	0x3e5923cf	0.21205066
220	0x3daf9932	0.085741416
221	0x3ed52e57	0.41636917
222	0x3d46019c	0.04834138
223	0x3df0fda9	0.11767132
224	0x3d018614	0.031622007
225	0x3f250c0f	0.64471525
226	0xbd745905	-0.05965521
227	0x3e4df6b3	0.2011364
228	0x3de50fc2	0.11184646
229	0xbe6d7b07	-0.23191462
230	0x3ea13ab1	0.3149009
231	0x3eae14ac	0.34000146
232	0x3ecd6c49	0.40121678
233	0x3de2f93c	0.11082694
234	0xbb5676ec	-0.0032724692
235	0x3eeb0ceb	0.45908293
236	0x3df03a28	0.117298424
237	0xbe9df91c	-0.30854118
238	0x3c483a22	0.012220891
239	0x3e9ebdf2	0.31004292
240	0xbd6f2cda	-0.058392383
241	0x3d8e968c	0.06962308
242	0xbceb10bb	-0.028694501
243	0x3e3fe3d7	0.18739258
244	0x3eecd441	0.46255687
245	0x3e6b7653	0.22994356
246	0xbdabdd2e	-0.08391796
247	0x3e61402f	0.2199714
248	0xbd61499d	-0.055001844
249	0xbdb759d3	-0.089526795
250	0xbe579266	-0.2105194
251	0x3f28f219	0.6599441
252	0x3f2c0e7e	0.67209613
253	0xbdad13f6	-0.08451073
254	0x3d02eea2	0.03196586
255	0x3d9ea837	0.07746928

fc1.bias f4 [64]
0	0x3daeb9b3	0.08531513
1	0xbdd9ef08	-0.10641295
2	0xbe0a9372	-0.13532808
3	0xbe9bd9c4	-0.3043958
4	0xbe045e06	-0.12926492
5	0xbd9590f6	-0.0730304
6	0xbd9c30ac	-0.07626471
7	0x3dd3d510	0.10343373
8	0x3d9fbf81	0.07800198
9	0xbeb6f29e	-0.35731977
10	0x3e8532a2	0.26015192
11	0xbdaf908b	-0.08572491
12	0x3ec5e454	0.38650763
13	0xbe2ccadc	-0.1687426
14	0x3cd40ffa	0.025886524
15	0xbc576419	-0.013146424
16	0xbe171736	-0.14754948
17	0xbd83b0e4	-0.064302236
18	0xbd073a98	-0.033014864
19	0x3dc8e39c	0.09809038
20	0xbefb87ef	-0.49127147
21	0xbdcd89f5	-0.10036079
22	0xbd04a4de	-0.032383792
23	0x3c362558	0.011117302
24	0xbdf5291f	-0.11970734
25	0xbe01e39a	-0.1268448
26	0x3ddb0c6a	0.10695727
27	0xbde7d22b	-0.11319383
28	0x3e0f0219	0.13965644
29	0xbdb4f3d9	-0.08835573
30	0xbdff970c	-0.12479982
31	0xbe0614fe	-0.13093945
32	0x3dc1ac05	0.09456638
33	0x3e4cfba2	0.20017865
34	0xbd97ca34	-0.07411614
35	0xbe0721df	-0.13196515
36	0x3ea12a69	0.3147767
37	0xbed1b84b	-0.40960917
38	0x3cb0471e	0.021518286
39	0xbdb975af	-0.090556495
40	0xbe8c16ea	-0.27361232
41	0x3d4a968d	0.049459983
42	0xbd341b58	-0.04397139
43	0x3ee9ddfe	0.4567718
44	0xbe03c99e	-0.1286988
45	0xbc89f39e	-0.016839799
46	0xbdaf7f27	-0.08569174
47	0xbe17d262	-0.14826348
48	0xbe9dd800	-0.30828857
49	0x3eac9e5e	0.33714575
50	0xbe046678	-0.12929714
51	0x3ecfd31b	0.40590748
52	0xbdb5348f	-0.088479154
53	0xbd651cab	-0.055935543
54	0xbde0b957	-0.10972851
55	0xbd8e254a	-0.06940706
56	0xbe849399	-0.25893858
57	0x3dbd2019	0.09234638
58	0xbdfc8220	-0.12329507
59	0x3e403ab1	0.18772389
60	0xbeea8148	-0.4580176
61	0xbda1f31a	-0.07907696
62	0x3dcddf80	0.10052395
63	0xbdab9994	-0.08378902

fc2.weight f4 [4, 64]
0	0xbc336e83	-0.010951641
1	0x401da0ef	2.4629476
2	0x3d2fd708	0.04292968
3	0x3e5dae80	0.21648598
4	0x3d12b6d0	0.035818875
5	0x3d941b08	0.07231718
6	0x3d838be0	0.064231634
7	0xbd24b0e8	-0.040207773
8	0x3cf037c8	0.029323474
9	0x3f17840f	0.5918588
10	0xbe9450d7	-0.28967926
11	0x3d7b0c82	0.061291225
12	0xbeea8281	-0.45802692
13	0x3ed98afa	0.42488843
14	0xbf766672	-0.9625007
15	0xbdf2c9c4	-0.1185489
16	0x3d99d16e	0.07510649
17	0xbe8e2bb7	-0.27767727
18	0x3c153f46	0.009109324
19	0xbd8bd7e8	-0.0682829
20	0x3e04d0d0	0.1297028
21	0x3dac7a2c	0.0842174
22	0xbdc17190	-0.094454885
23	0x3d9481b5	0.07251302
24	0xbdd3a266	-0.103337094
25	0x3cd820c8	0.026382819
26	0x3dc26eca	0.094937876
27	0x3ca5d26b	0.020241937
28	0xbf549ade	-0.8304881
29	0xbd103702	-0.03520871
30	0xbc7755be	-0.015096126
31	0xbd41f018	-0.047348112
32	0x3d177c31	0.036983673
33	0xbe72cc8a	-0.23710838
34	0x3f503837	0.8133578
35	0x3dbde16e	0.09271513
36	0x3e0b0004	0.13574225
37	0x3fe83a2c	1.8142753
38	0xbc641411	-0.0139208
39	0x3c2a66f0	0.010400519
40	0x3d4d8ce8	0.050183207
41	0x3e840e2f	0.2579207
42	0xc013e50e	-2.3108554
43	0xbea3ceb0	-0.31993628
44	0xbd3eed68	-0.046613127
45	0x3f1ee0c4	0.62061715
46	0x3de20b40	0.11037302
47	0xbf3884f8	-0.72077894
48	0x3e8f1bb9	0.27950838
49	0xbedd273d	-0.43194
50	0x3d5e20da	0.05423055
51	0xbef306ff	-0.47466275
52	0xbd5b80ee	-0.053589754
53	0xbd8e3cd6	-0.06945197
54	0xbd00f88e	-0.03148704
55	0xbbeb7380	-0.0071853995
56	0xbe1cb727	-0.15304242
57	0x3eaa5e3b	0.33275017
58	0x3db7aace	0.08968125
59	0xbeaefeed	-0.34178868
60	0x3f18b6c3	0.5965387
61	0x3d9ac782	0.07557584
62	0x3ca7f987	0.020504726
63	0x3d8dcd57	0.06923931
64	0xbd232ee3	-0.039839637
65	0x3fc75a5c	1.557445
66	0x3cf515c6	0.029917609
67	0x3eb11d66	0.34592742
68	0xbcd17bdf	-0.025571762
69	0x3d7478ac	0.059685394
70	0xbd84510a	-0.064607695
71	0x3f828bba	1.0198891
72	0xbd55f2cf	-0.052233513
73	0x3f16af03	0.58860797
74	0xbd66c478	-0.05633971
75	0xbf85cb33	-1.0452636
76	0xbef5093f	-0.47858617
77	0x3f7aa5f2	0.9790946
78	0xbefdd0e4	-0.49573433
79	0x3d48a90c	0.04898934
80	0xbcdeabb3	-0.027181482
81	0xbf464b9b	-0.77459115
82	0x3daec68e	0.08533965
83	0x3dc4a9d1	0.096027024
84	0x3e3053a6	0.1721941
85	0xbdc31a88	-0.09526545
86	0x3da44ef8	0.080228746
87	0x3c04e483	0.008111122
88	0x3f1bcac2	0.6085626
89	0x3b61e278	0.0034467261
90	0xbdea19c6	-0.11430697
91	0xbcc2e1df	-0.023789344
92	0xbde0cf55	-0.109770454
93	0xbbb85f96	-0.005626629
94	0xbcf7d719	-0.030253934
95	0xbd1960ee	-0.037445955
96	0x3c817de1	0.015807094
97	0xbed4ea46	-0.41584986
98	0xbf38456d	-0.71980935
99	0xbe07e4af	-0.1327083
100	0xbf015fee	-0.50537
101	0x3fda6ad0	1.7063847
102	0x3dd10efe	0.10207938
103	0x3dfdfa22	0.12401225
104	0x3fcda78e	1.6066759
105	0xbf863a91	-1.0486623
106	0xba906fdd	-0.0011019666
107	0xbeeceee6	-0.46276015
108	0x3dbdde6d	0.0927094
109	0xbe3458e8	-0.1761204
110	0xbd911909	-0.07084853
111	0xbf3a2490	-0.7271204
112	0x3ea29d0a	0.31760436
113	0xbd9b1aad	-0.075734474
114	0x3f3ec274	0.7451546
115	0xbe80a03e	-0.25122255
116	0xbd8f87ce	-0.070083246
117	0x3d236c5d	0.039898265
118	0xbdcfda4e	-0.1014906
119	0xbc9d5318	-0.019204661
120	0xbec0a151	-0.37623075
121	0x3e8ded4f	0.27720115
122	0x3de8378c	0.1133872
123	0xbf126d61	-0.5719815
124	0x3e93e210	0.2888341
125	0x3d8549cd	0.06508217
126	0xbdfeb50f	-0.12436878
127	0x3db966e8	0.09052831
128	0x3d9a2633	0.07526817
129	0xbf2c4c2c	-0.6730373
130	0x3cfb244a	0.030656952
131	0x3f07d546	0.53059804
132	0xbda9edc8	-0.08297306
133	0x3d3aae18	0.045576185
134	0x3d8e12dc	0.06937191
135	0xbffc354a	-1.9703763
136	0xbd626405	-0.055271167
137	0x3f40d9d5	0.75332385
138	0xbe82395d	-0.2543439
139	0x3ef80cd6	0.48447293
140	0xbf18903c	-0.59595084
141	0x3e4a2ca3	0.1974359
142	0x3e164b58	0.14677179
143	0x3d922fef	0.07138049
144	0x3cf606c9	0.030032532
145	0xbf7e8cf9	-0.9943386
146	0xbc70aa2c	-0.01468901
147	0xbd6f61a7	-0.058442738
148	0xbe76d4ac	-0.24104565
149	0xbded4606	-0.115856215
150	0x3d009526	0.03139224
151	0xbc984549	-0.018587725
152	0x3b009574	0.001962033
153	0x3d55dd20	0.052212834
154	0x3dc9c886	0.098527
155	0x3dc83e36	0.09777491
156	0x3e5ca648	0.21547806
157	0x3d577a05	0.0526066
158	0xbdf37c88	-0.11888987
159	0x3d290f10	0.04127413
160	0x3d8c82fa	0.06860919
161	0xbf17a78e	-0.59240043
162	0x3d9a0557	0.0752055
163	0x3dbe7d9e	0.09301303
164	0x3e67055d	0.2256064
165	0x4006ad53	2.1043289
166	0x3d960053	0.073242806
167	0x3b11be00	0.0022238493
168	0xc03803cc	-2.8752317
169	0x3f780304	0.968796
170	0xbeb88330	-0.36037588
171	0xbf110901	-0.56654364
172	0x3d951ac3	0.07280495
173	0x3f041a21	0.5160237
174	0x3c13bc61	0.009017081
175	0xbdb82c29	-0.08992798
176	0x3db23b90	0.08702767
177	0xbea8c3a8	-0.32961774
178	0xbde5f119	-0.11227626
179	0xbdd9678c	-0.10615453
180	0x3d3ba7ea	0.045814432
181	0xbdbca142	-0.09210445
182	0xbdaac11e	-0.083376154
183	0x3c31962c	0.010839026
184	0xbfe8af3c	-1.8178477
185	0x3ef8ec8e	0.48617977
186	0x3cb55268	0.02213402
187	0xbe7a056b	-0.2441613
188	0x3ebdd1a3	0.37074003
189	0xbdbd5ed4	-0.09246603
190	0x3d15f868	0.03661385
191	0xbdb65ba3	-0.08904197
192	0x3c5ae5af	0.013360425
193	0xbffef53f	-1.9918593
194	0xbc0e2a03	-0.008677009
195	0x3e489216	0.19586977
196	0xbd4d375c	-0.050101623
197	0xbda20597	-0.079112224
198	0xbc1bd440	-0.009511054
199	0xbf27ef7c	-0.655998
200	0x3b384ad3	0.002812077
201	0x3eae4b83	0.34041986
202	0xbf26606a	-0.64990866
203	0xbfee2b18	-1.8606901
204	0xbe80bb11	-0.2514272
205	0x3f8330f8	1.0249319
206	0xbf7a00f3	-0.976577
207	0x3d25daa9	0.040491734
208	0x3dbc2b54	0.09187952
209	0x3f3f4d1d	0.7472704
210	0xbd8b4208	-0.06799704
211	0x3b1abb01	0.0023609998
212	0xbfce32f7	-1.6109303
213	0x3d9195f4	0.071086794
214	0x3dd17474	0.1022729
215	0x3d82e838	0.063919485
216	0x3f46d030	0.7766142
217	0xbdfcb71e	-0.12339614
218	0x3be91d56	0.007114093
219	0x3daa955e	0.08329271
220	0x3eaa5a80	0.3327217
221	0x3d27c830	0.040962398
222	0x3ac4a36e	0.0015002319
223	0xbc343796	-0.010999581
224	0x3c9d7170	0.01921913
225	0xbe36177a	-0.17782393
226	0x3e1d0c5c	0.15336746
227	0x3ceb9ba3	0.028760737
228	0xbec58644	-0.38579
229	0x40309a4e	2.759418
230	0x3c4d0093	0.012512344
231	0x3c530197	0.012878797
232	0xbf806610	-1.0031147
233	0xbe02a18f	-0.12756942
234	0x3dbfb0b3	0.093598746
235	0xbe94f163	-0.29090413
236	0xbdf19587	-0.11796098
237	0xbe562a8b	-0.20914666
238	0x3dd1fa57	0.10252827
239	0x3f164609	0.58700615
240	0x3eff0682	0.49809653
241	0xbeb0be50	-0.34520197
242	0x3f2f4aa1	0.6847325
243	0xbf04df61	-0.5190335
244	0x3db8a3a9	0.09015591
245	0x3da56562	0.08075978
246	0xba3ccd2a	-0.00072022027
247	0x3d1b0165	0.037843127
248	0x3edca9e7	0.43098375
249	0x3e0dc741	0.1384554
250	0x3d8b2148	0.06793457
251	0xbe90bb07	-0.2826769
252	0xbffdabe2	-1.981808
253	0x3d25f7c5	0.040519495
254	0x3d6bf3a6	0.057605408
255	0x3dee38c0	0.11631918

fc2.bias f4 [4]
0	0xbe8d8d67	-0.27646944
1	0xbee00b1a	-0.4375847
2	0xbe6bc110	-0.23022866
3	0x3be1e165	0.006893324
